…
I0803 15:42:59.168213 16203 net.cpp:296] The NetState phase (0) differed from the phase (1) specified by a rule in layer data
I0803 15:42:59.168241 16203 net.cpp:296] The NetState phase (0) differed from the phase (1) specified by a rule in layer accuracy
I0803 15:42:59.168436 16203 net.cpp:53] Initializing net from parameters: 
name: "CaffeNet"
state {
  phase: TRAIN
}
layer {
  name: "data"
  type: "Data"
  top: "data"
  top: "label"
  include {
    phase: TRAIN
  }
  transform_param {
    mirror: true
    crop_size: 227
    mean_value: 104
    mean_value: 117
    mean_value: 123
  }
  data_param {
    source: "train.LMDB"
    batch_size: 256
    backend: LMDB
  }
}
layer {
  name: "conv1"
  type: "Convolution"
  bottom: "data"
  top: "conv1"
  param {
    lr_mult: 0
    decay_mult: 1
  }
  param {
    lr_mult: 0
    decay_mult: 0
  }
  convolution_param {
    num_output: 96
    kernel_size: 11
    stride: 4
    weight_filler {
      type: "gaussian"
      std: 0.01
    }
    bias_filler {
      type: "constant"
      value: 0
    }
  }
}
layer {
  name: "relu1"
  type: "ReLU"
  bottom: "conv1"
  top: "conv1"
}
layer {
  name: "pool1"
  type: "Pooling"
  bottom: "conv1"
  top: "pool1"
  pooling_param {
    pool: MAX
    kernel_size: 3
    stride: 2
  }
}
layer {
  name: "norm1"
  type: "LRN"
  bottom: "pool1"
  top: "norm1"
  lrn_param {
    local_size: 5
    alpha: 0.0001
    beta: 0.75
  }
}
layer {
  name: "conv2"
  type: "Convolution"
  bottom: "norm1"
  top: "conv2"
  param {
    lr_mult: 0
    decay_mult: 1
  }
  param {
    lr_mult: 0
    decay_mult: 0
  }
  convolution_param {
    num_output: 256
    pad: 2
    kernel_size: 5
    group: 2
    weight_filler {
      type: "gaussian"
      std: 0.01
    }
    bias_filler {
      type: "constant"
      value: 1
    }
  }
}
layer {
  name: "relu2"
  type: "ReLU"
  bottom: "conv2"
  top: "conv2"
}
layer {
  name: "pool2"
  type: "Pooling"
  bottom: "conv2"
  top: "pool2"
  pooling_param {
    pool: MAX
    kernel_size: 3
    stride: 2
  }
}
layer {
  name: "norm2"
  type: "LRN"
  bottom: "pool2"
  top: "norm2"
  lrn_param {
    local_size: 5
    alpha: 0.0001
    beta: 0.75
  }
}
layer {
  name: "conv3"
  type: "Convolution"
  bottom: "norm2"
  top: "conv3"
  param {
    lr_mult: 0
    decay_mult: 1
  }
  param {
    lr_mult: 0
    decay_mult: 0
  }
  convolution_param {
    num_output: 384
    pad: 1
    kernel_size: 3
    weight_filler {
      type: "gaussian"
      std: 0.01
    }
    bias_filler {
      type: "constant"
      value: 0
    }
  }
}
layer {
  name: "relu3"
  type: "ReLU"
  bottom: "conv3"
  top: "conv3"
}
layer {
  name: "conv4"
  type: "Convolution"
  bottom: "conv3"
  top: "conv4"
  param {
    lr_mult: 0
    decay_mult: 1
  }
  param {
    lr_mult: 0
    decay_mult: 0
  }
  convolution_param {
    num_output: 384
    pad: 1
    kernel_size: 3
    group: 2
    weight_filler {
      type: "gaussian"
      std: 0.01
    }
    bias_filler {
      type: "constant"
      value: 1
    }
  }
}
layer {
  name: "relu4"
  type: "ReLU"
  bottom: "conv4"
  top: "conv4"
}
layer {
  name: "conv5"
  type: "Convolution"
  bottom: "conv4"
  top: "conv5"
  param {
    lr_mult: 0
    decay_mult: 1
  }
  param {
    lr_mult: 0
    decay_mult: 0
  }
  convolution_param {
    num_output: 256
    pad: 1
    kernel_size: 3
    group: 2
    weight_filler {
      type: "gaussian"
      std: 0.01
    }
    bias_filler {
      type: "constant"
      value: 1
    }
  }
}
layer {
  name: "relu5"
  type: "ReLU"
  bottom: "conv5"
  top: "conv5"
}
layer {
  name: "pool5"
  type: "Pooling"
  bottom: "conv5"
  top: "pool5"
  pooling_param {
    pool: MAX
    kernel_size: 3
    stride: 2
  }
}
layer {
  name: "fc6"
  type: "InnerProduct"
  bottom: "pool5"
  top: "fc6"
  param {
    lr_mult: 1
    decay_mult: 1
  }
  param {
    lr_mult: 2
    decay_mult: 0
  }
  inner_product_param {
    num_output: 4096
    weight_filler {
      type: "gaussian"
      std: 0.005
    }
    bias_filler {
      type: "constant"
      value: 1
    }
  }
}
layer {
  name: "relu6"
  type: "ReLU"
  bottom: "fc6"
  top: "fc6"
}
layer {
  name: "drop6"
  type: "Dropout"
  bottom: "fc6"
  top: "fc6"
  dropout_param {
    dropout_ratio: 0.5
  }
}
layer {
  name: "fc7"
  type: "InnerProduct"
  bottom: "fc6"
  top: "fc7"
  param {
    lr_mult: 1
    decay_mult: 1
  }
  param {
    lr_mult: 2
    decay_mult: 0
  }
  inner_product_param {
    num_output: 4096
    weight_filler {
      type: "gaussian"
      std: 0.005
    }
    bias_filler {
      type: "constant"
      value: 1
    }
  }
}
layer {
  name: "relu7"
  type: "ReLU"
  bottom: "fc7"
  top: "fc7"
}
layer {
  name: "drop7"
  type: "Dropout"
  bottom: "fc7"
  top: "fc7"
  dropout_param {
    dropout_ratio: 0.5
  }
}
layer {
  name: "fc8"
  type: "InnerProduct"
  bottom: "fc7"
  top: "fc8"
  param {
    lr_mult: 1
    decay_mult: 1
  }
  param {
    lr_mult: 2
    decay_mult: 0
  }
  inner_product_param {
    num_output: 2
    weight_filler {
      type: "gaussian"
      std: 0.01
    }
    bias_filler {
      type: "constant"
      value: 0
    }
  }
}
layer {
  name: "loss"
  type: "SoftmaxWithLoss"
  bottom: "fc8"
  bottom: "label"
  top: "loss"
}
I0803 15:42:59.168532 16203 layer_factory.hpp:77] Creating layer data
I0803 15:42:59.169553 16203 db_lmdb.cpp:35] Opened lmdb train.LMDB
I0803 15:42:59.169737 16203 net.cpp:86] Creating Layer data
I0803 15:42:59.169754 16203 net.cpp:382] data -> data
I0803 15:42:59.169775 16203 net.cpp:382] data -> label
I0803 15:42:59.171900 16203 data_layer.cpp:45] output data size: 256,3,227,227
I0803 15:42:59.611618 16203 net.cpp:124] Setting up data
I0803 15:42:59.611690 16203 net.cpp:131] Top shape: 256 3 227 227 (39574272)
I0803 15:42:59.611701 16203 net.cpp:131] Top shape: 256 (256)
I0803 15:42:59.611707 16203 net.cpp:139] Memory required for data: 158298112
I0803 15:42:59.611721 16203 layer_factory.hpp:77] Creating layer conv1
I0803 15:42:59.611764 16203 net.cpp:86] Creating Layer conv1
I0803 15:42:59.611774 16203 net.cpp:408] conv1 <- data
I0803 15:42:59.611790 16203 net.cpp:382] conv1 -> conv1
I0803 15:42:59.893918 16203 net.cpp:124] Setting up conv1
I0803 15:42:59.893959 16203 net.cpp:131] Top shape: 256 96 55 55 (74342400)
I0803 15:42:59.893965 16203 net.cpp:139] Memory required for data: 455667712
I0803 15:42:59.893986 16203 layer_factory.hpp:77] Creating layer relu1
I0803 15:42:59.894004 16203 net.cpp:86] Creating Layer relu1
I0803 15:42:59.894011 16203 net.cpp:408] relu1 <- conv1
I0803 15:42:59.894019 16203 net.cpp:369] relu1 -> conv1 (in-place)
I0803 15:42:59.894820 16203 net.cpp:124] Setting up relu1
I0803 15:42:59.894837 16203 net.cpp:131] Top shape: 256 96 55 55 (74342400)
I0803 15:42:59.894842 16203 net.cpp:139] Memory required for data: 753037312
I0803 15:42:59.894847 16203 layer_factory.hpp:77] Creating layer pool1
I0803 15:42:59.894857 16203 net.cpp:86] Creating Layer pool1
I0803 15:42:59.894861 16203 net.cpp:408] pool1 <- conv1
I0803 15:42:59.894871 16203 net.cpp:382] pool1 -> pool1
I0803 15:42:59.894932 16203 net.cpp:124] Setting up pool1
I0803 15:42:59.894946 16203 net.cpp:131] Top shape: 256 96 27 27 (17915904)
I0803 15:42:59.894951 16203 net.cpp:139] Memory required for data: 824700928
I0803 15:42:59.894956 16203 layer_factory.hpp:77] Creating layer norm1
I0803 15:42:59.894968 16203 net.cpp:86] Creating Layer norm1
I0803 15:42:59.894973 16203 net.cpp:408] norm1 <- pool1
I0803 15:42:59.894981 16203 net.cpp:382] norm1 -> norm1
I0803 15:42:59.895241 16203 net.cpp:124] Setting up norm1
I0803 15:42:59.895256 16203 net.cpp:131] Top shape: 256 96 27 27 (17915904)
I0803 15:42:59.895262 16203 net.cpp:139] Memory required for data: 896364544
I0803 15:42:59.895267 16203 layer_factory.hpp:77] Creating layer conv2
I0803 15:42:59.895285 16203 net.cpp:86] Creating Layer conv2
I0803 15:42:59.895290 16203 net.cpp:408] conv2 <- norm1
I0803 15:42:59.895300 16203 net.cpp:382] conv2 -> conv2
I0803 15:42:59.911650 16203 net.cpp:124] Setting up conv2
I0803 15:42:59.911687 16203 net.cpp:131] Top shape: 256 256 27 27 (47775744)
I0803 15:42:59.911694 16203 net.cpp:139] Memory required for data: 1087467520
I0803 15:42:59.911710 16203 layer_factory.hpp:77] Creating layer relu2
I0803 15:42:59.911734 16203 net.cpp:86] Creating Layer relu2
I0803 15:42:59.911741 16203 net.cpp:408] relu2 <- conv2
I0803 15:42:59.911749 16203 net.cpp:369] relu2 -> conv2 (in-place)
I0803 15:42:59.911993 16203 net.cpp:124] Setting up relu2
I0803 15:42:59.912009 16203 net.cpp:131] Top shape: 256 256 27 27 (47775744)
I0803 15:42:59.912014 16203 net.cpp:139] Memory required for data: 1278570496
I0803 15:42:59.912019 16203 layer_factory.hpp:77] Creating layer pool2
I0803 15:42:59.912029 16203 net.cpp:86] Creating Layer pool2
I0803 15:42:59.912034 16203 net.cpp:408] pool2 <- conv2
I0803 15:42:59.912040 16203 net.cpp:382] pool2 -> pool2
I0803 15:42:59.912098 16203 net.cpp:124] Setting up pool2
I0803 15:42:59.912111 16203 net.cpp:131] Top shape: 256 256 13 13 (11075584)
I0803 15:42:59.912118 16203 net.cpp:139] Memory required for data: 1322872832
I0803 15:42:59.912122 16203 layer_factory.hpp:77] Creating layer norm2
I0803 15:42:59.912137 16203 net.cpp:86] Creating Layer norm2
I0803 15:42:59.912143 16203 net.cpp:408] norm2 <- pool2
I0803 15:42:59.912150 16203 net.cpp:382] norm2 -> norm2
I0803 15:42:59.912984 16203 net.cpp:124] Setting up norm2
I0803 15:42:59.913007 16203 net.cpp:131] Top shape: 256 256 13 13 (11075584)
I0803 15:42:59.913012 16203 net.cpp:139] Memory required for data: 1367175168
I0803 15:42:59.913017 16203 layer_factory.hpp:77] Creating layer conv3
I0803 15:42:59.913035 16203 net.cpp:86] Creating Layer conv3
I0803 15:42:59.913040 16203 net.cpp:408] conv3 <- norm2
I0803 15:42:59.913051 16203 net.cpp:382] conv3 -> conv3
I0803 15:42:59.949065 16203 net.cpp:124] Setting up conv3
I0803 15:42:59.949122 16203 net.cpp:131] Top shape: 256 384 13 13 (16613376)
I0803 15:42:59.949129 16203 net.cpp:139] Memory required for data: 1433628672
I0803 15:42:59.949147 16203 layer_factory.hpp:77] Creating layer relu3
I0803 15:42:59.949162 16203 net.cpp:86] Creating Layer relu3
I0803 15:42:59.949172 16203 net.cpp:408] relu3 <- conv3
I0803 15:42:59.949184 16203 net.cpp:369] relu3 -> conv3 (in-place)
I0803 15:42:59.949404 16203 net.cpp:124] Setting up relu3
I0803 15:42:59.949419 16203 net.cpp:131] Top shape: 256 384 13 13 (16613376)
I0803 15:42:59.949425 16203 net.cpp:139] Memory required for data: 1500082176
I0803 15:42:59.949430 16203 layer_factory.hpp:77] Creating layer conv4
I0803 15:42:59.949448 16203 net.cpp:86] Creating Layer conv4
I0803 15:42:59.949455 16203 net.cpp:408] conv4 <- conv3
I0803 15:42:59.949466 16203 net.cpp:382] conv4 -> conv4
I0803 15:42:59.997233 16203 net.cpp:124] Setting up conv4
I0803 15:42:59.997304 16203 net.cpp:131] Top shape: 256 384 13 13 (16613376)
I0803 15:42:59.997314 16203 net.cpp:139] Memory required for data: 1566535680
I0803 15:42:59.997339 16203 layer_factory.hpp:77] Creating layer relu4
I0803 15:42:59.997371 16203 net.cpp:86] Creating Layer relu4
I0803 15:42:59.997385 16203 net.cpp:408] relu4 <- conv4
I0803 15:42:59.997403 16203 net.cpp:369] relu4 -> conv4 (in-place)
I0803 15:42:59.997786 16203 net.cpp:124] Setting up relu4
I0803 15:42:59.997817 16203 net.cpp:131] Top shape: 256 384 13 13 (16613376)
I0803 15:42:59.997826 16203 net.cpp:139] Memory required for data: 1632989184
I0803 15:42:59.997834 16203 layer_factory.hpp:77] Creating layer conv5
I0803 15:42:59.997869 16203 net.cpp:86] Creating Layer conv5
I0803 15:42:59.997881 16203 net.cpp:408] conv5 <- conv4
I0803 15:42:59.997900 16203 net.cpp:382] conv5 -> conv5
I0803 15:43:00.039080 16203 net.cpp:124] Setting up conv5
I0803 15:43:00.039151 16203 net.cpp:131] Top shape: 256 256 13 13 (11075584)
I0803 15:43:00.039160 16203 net.cpp:139] Memory required for data: 1677291520
I0803 15:43:00.039239 16203 layer_factory.hpp:77] Creating layer relu5
I0803 15:43:00.039315 16203 net.cpp:86] Creating Layer relu5
I0803 15:43:00.039335 16203 net.cpp:408] relu5 <- conv5
I0803 15:43:00.039352 16203 net.cpp:369] relu5 -> conv5 (in-place)
I0803 15:43:00.039650 16203 net.cpp:124] Setting up relu5
I0803 15:43:00.039669 16203 net.cpp:131] Top shape: 256 256 13 13 (11075584)
I0803 15:43:00.039677 16203 net.cpp:139] Memory required for data: 1721593856
I0803 15:43:00.039685 16203 layer_factory.hpp:77] Creating layer pool5
I0803 15:43:00.039724 16203 net.cpp:86] Creating Layer pool5
I0803 15:43:00.039734 16203 net.cpp:408] pool5 <- conv5
I0803 15:43:00.039757 16203 net.cpp:382] pool5 -> pool5
I0803 15:43:00.039891 16203 net.cpp:124] Setting up pool5
I0803 15:43:00.039908 16203 net.cpp:131] Top shape: 256 256 6 6 (2359296)
I0803 15:43:00.039916 16203 net.cpp:139] Memory required for data: 1731031040
I0803 15:43:00.039922 16203 layer_factory.hpp:77] Creating layer fc6
I0803 15:43:00.040015 16203 net.cpp:86] Creating Layer fc6
I0803 15:43:00.040026 16203 net.cpp:408] fc6 <- pool5
I0803 15:43:00.040036 16203 net.cpp:382] fc6 -> fc6
I0803 15:43:01.468258 16203 net.cpp:124] Setting up fc6
I0803 15:43:01.468330 16203 net.cpp:131] Top shape: 256 4096 (1048576)
I0803 15:43:01.468338 16203 net.cpp:139] Memory required for data: 1735225344
I0803 15:43:01.468369 16203 layer_factory.hpp:77] Creating layer relu6
I0803 15:43:01.468395 16203 net.cpp:86] Creating Layer relu6
I0803 15:43:01.468403 16203 net.cpp:408] relu6 <- fc6
I0803 15:43:01.468418 16203 net.cpp:369] relu6 -> fc6 (in-place)
I0803 15:43:01.469492 16203 net.cpp:124] Setting up relu6
I0803 15:43:01.469508 16203 net.cpp:131] Top shape: 256 4096 (1048576)
I0803 15:43:01.469513 16203 net.cpp:139] Memory required for data: 1739419648
I0803 15:43:01.469518 16203 layer_factory.hpp:77] Creating layer drop6
I0803 15:43:01.469547 16203 net.cpp:86] Creating Layer drop6
I0803 15:43:01.469566 16203 net.cpp:408] drop6 <- fc6
I0803 15:43:01.469573 16203 net.cpp:369] drop6 -> fc6 (in-place)
I0803 15:43:01.469605 16203 net.cpp:124] Setting up drop6
I0803 15:43:01.469624 16203 net.cpp:131] Top shape: 256 4096 (1048576)
I0803 15:43:01.469630 16203 net.cpp:139] Memory required for data: 1743613952
I0803 15:43:01.469633 16203 layer_factory.hpp:77] Creating layer fc7
I0803 15:43:01.469647 16203 net.cpp:86] Creating Layer fc7
I0803 15:43:01.469652 16203 net.cpp:408] fc7 <- fc6
I0803 15:43:01.469660 16203 net.cpp:382] fc7 -> fc7
I0803 15:43:02.097815 16203 net.cpp:124] Setting up fc7
I0803 15:43:02.097867 16203 net.cpp:131] Top shape: 256 4096 (1048576)
I0803 15:43:02.097873 16203 net.cpp:139] Memory required for data: 1747808256
I0803 15:43:02.097890 16203 layer_factory.hpp:77] Creating layer relu7
I0803 15:43:02.097924 16203 net.cpp:86] Creating Layer relu7
I0803 15:43:02.097931 16203 net.cpp:408] relu7 <- fc7
I0803 15:43:02.097944 16203 net.cpp:369] relu7 -> fc7 (in-place)
I0803 15:43:02.098948 16203 net.cpp:124] Setting up relu7
I0803 15:43:02.098965 16203 net.cpp:131] Top shape: 256 4096 (1048576)
I0803 15:43:02.098970 16203 net.cpp:139] Memory required for data: 1752002560
I0803 15:43:02.098989 16203 layer_factory.hpp:77] Creating layer drop7
I0803 15:43:02.099000 16203 net.cpp:86] Creating Layer drop7
I0803 15:43:02.099007 16203 net.cpp:408] drop7 <- fc7
I0803 15:43:02.099016 16203 net.cpp:369] drop7 -> fc7 (in-place)
I0803 15:43:02.099061 16203 net.cpp:124] Setting up drop7
I0803 15:43:02.099072 16203 net.cpp:131] Top shape: 256 4096 (1048576)
I0803 15:43:02.099079 16203 net.cpp:139] Memory required for data: 1756196864
I0803 15:43:02.099084 16203 layer_factory.hpp:77] Creating layer fc8
I0803 15:43:02.099102 16203 net.cpp:86] Creating Layer fc8
I0803 15:43:02.099107 16203 net.cpp:408] fc8 <- fc7
I0803 15:43:02.099118 16203 net.cpp:382] fc8 -> fc8
I0803 15:43:02.100265 16203 net.cpp:124] Setting up fc8
I0803 15:43:02.100281 16203 net.cpp:131] Top shape: 256 2 (512)
I0803 15:43:02.100298 16203 net.cpp:139] Memory required for data: 1756198912
I0803 15:43:02.100308 16203 layer_factory.hpp:77] Creating layer loss
I0803 15:43:02.100327 16203 net.cpp:86] Creating Layer loss
I0803 15:43:02.100332 16203 net.cpp:408] loss <- fc8
I0803 15:43:02.100338 16203 net.cpp:408] loss <- label
I0803 15:43:02.100347 16203 net.cpp:382] loss -> loss
I0803 15:43:02.100365 16203 layer_factory.hpp:77] Creating layer loss
…
I0803 15:43:02.102972 16203 solver.cpp:173] Creating test net (#0) specified by net file: caffenet/train_val_exp5.prototxt
I0803 15:43:02.103049 16203 net.cpp:296] The NetState phase (1) differed from the phase (0) specified by a rule in layer data
I0803 15:43:02.103301 16203 net.cpp:53] Initializing net from parameters: 
name: "CaffeNet"
state {
  phase: TEST
}
layer {
  name: "data"
  type: "Data"
  top: "data"
  top: "label"
  include {
    phase: TEST
  }
  transform_param {
    mirror: true
    crop_size: 227
    mean_value: 104
    mean_value: 117
    mean_value: 123
  }
  data_param {
    source: "val.LMDB"
    batch_size: 50
    backend: LMDB
  }
}
layer {
  name: "conv1"
  type: "Convolution"
  bottom: "data"
  top: "conv1"
  param {
    lr_mult: 0
    decay_mult: 1
  }
  param {
    lr_mult: 0
    decay_mult: 0
  }
  convolution_param {
    num_output: 96
    kernel_size: 11
    stride: 4
    weight_filler {
      type: "gaussian"
      std: 0.01
    }
    bias_filler {
      type: "constant"
      value: 0
    }
  }
}
layer {
  name: "relu1"
  type: "ReLU"
  bottom: "conv1"
  top: "conv1"
}
layer {
  name: "pool1"
  type: "Pooling"
  bottom: "conv1"
  top: "pool1"
  pooling_param {
    pool: MAX
    kernel_size: 3
    stride: 2
  }
}
layer {
  name: "norm1"
  type: "LRN"
  bottom: "pool1"
  top: "norm1"
  lrn_param {
    local_size: 5
    alpha: 0.0001
    beta: 0.75
  }
}
layer {
  name: "conv2"
  type: "Convolution"
  bottom: "norm1"
  top: "conv2"
  param {
    lr_mult: 0
    decay_mult: 1
  }
  param {
    lr_mult: 0
    decay_mult: 0
  }
  convolution_param {
    num_output: 256
    pad: 2
    kernel_size: 5
    group: 2
    weight_filler {
      type: "gaussian"
      std: 0.01
    }
    bias_filler {
      type: "constant"
      value: 1
    }
  }
}
layer {
  name: "relu2"
  type: "ReLU"
  bottom: "conv2"
  top: "conv2"
}
layer {
  name: "pool2"
  type: "Pooling"
  bottom: "conv2"
  top: "pool2"
  pooling_param {
    pool: MAX
    kernel_size: 3
    stride: 2
  }
}
layer {
  name: "norm2"
  type: "LRN"
  bottom: "pool2"
  top: "norm2"
  lrn_param {
    local_size: 5
    alpha: 0.0001
    beta: 0.75
  }
}
layer {
  name: "conv3"
  type: "Convolution"
  bottom: "norm2"
  top: "conv3"
  param {
    lr_mult: 0
    decay_mult: 1
  }
  param {
    lr_mult: 0
    decay_mult: 0
  }
  convolution_param {
    num_output: 384
    pad: 1
    kernel_size: 3
    weight_filler {
      type: "gaussian"
      std: 0.01
    }
    bias_filler {
      type: "constant"
      value: 0
    }
  }
}
layer {
  name: "relu3"
  type: "ReLU"
  bottom: "conv3"
  top: "conv3"
}
layer {
  name: "conv4"
  type: "Convolution"
  bottom: "conv3"
  top: "conv4"
  param {
    lr_mult: 0
    decay_mult: 1
  }
  param {
    lr_mult: 0
    decay_mult: 0
  }
  convolution_param {
    num_output: 384
    pad: 1
    kernel_size: 3
    group: 2
    weight_filler {
      type: "gaussian"
      std: 0.01
    }
    bias_filler {
      type: "constant"
      value: 1
    }
  }
}
layer {
  name: "relu4"
  type: "ReLU"
  bottom: "conv4"
  top: "conv4"
}
layer {
  name: "conv5"
  type: "Convolution"
  bottom: "conv4"
  top: "conv5"
  param {
    lr_mult: 0
    decay_mult: 1
  }
  param {
    lr_mult: 0
    decay_mult: 0
  }
  convolution_param {
    num_output: 256
    pad: 1
    kernel_size: 3
    group: 2
    weight_filler {
      type: "gaussian"
      std: 0.01
    }
    bias_filler {
      type: "constant"
      value: 1
    }
  }
}
layer {
  name: "relu5"
  type: "ReLU"
  bottom: "conv5"
  top: "conv5"
}
layer {
  name: "pool5"
  type: "Pooling"
  bottom: "conv5"
  top: "pool5"
  pooling_param {
    pool: MAX
    kernel_size: 3
    stride: 2
  }
}
layer {
  name: "fc6"
  type: "InnerProduct"
  bottom: "pool5"
  top: "fc6"
  param {
    lr_mult: 1
    decay_mult: 1
  }
  param {
    lr_mult: 2
    decay_mult: 0
  }
  inner_product_param {
    num_output: 4096
    weight_filler {
      type: "gaussian"
      std: 0.005
    }
    bias_filler {
      type: "constant"
      value: 1
    }
  }
}
layer {
  name: "relu6"
  type: "ReLU"
  bottom: "fc6"
  top: "fc6"
}
layer {
  name: "drop6"
  type: "Dropout"
  bottom: "fc6"
  top: "fc6"
  dropout_param {
    dropout_ratio: 0.5
  }
}
layer {
  name: "fc7"
  type: "InnerProduct"
  bottom: "fc6"
  top: "fc7"
  param {
    lr_mult: 1
    decay_mult: 1
  }
  param {
    lr_mult: 2
    decay_mult: 0
  }
  inner_product_param {
    num_output: 4096
    weight_filler {
      type: "gaussian"
      std: 0.005
    }
    bias_filler {
      type: "constant"
      value: 1
    }
  }
}
layer {
  name: "relu7"
  type: "ReLU"
  bottom: "fc7"
  top: "fc7"
}
layer {
  name: "drop7"
  type: "Dropout"
  bottom: "fc7"
  top: "fc7"
  dropout_param {
    dropout_ratio: 0.5
  }
}
layer {
  name: "fc8"
  type: "InnerProduct"
  bottom: "fc7"
  top: "fc8"
  param {
    lr_mult: 1
    decay_mult: 1
  }
  param {
    lr_mult: 2
    decay_mult: 0
  }
  inner_product_param {
    num_output: 2
    weight_filler {
      type: "gaussian"
      std: 0.01
    }
    bias_filler {
      type: "constant"
      value: 0
    }
  }
}
layer {
  name: "accuracy"
  type: "Accuracy"
  bottom: "fc8"
  bottom: "label"
  top: "accuracy"
  include {
    phase: TEST
  }
}
layer {
  name: "loss"
  type: "SoftmaxWithLoss"
  bottom: "fc8"
  bottom: "label"
  top: "loss"
}
I0803 15:43:02.103440 16203 layer_factory.hpp:77] Creating layer data
I0803 15:43:02.104913 16203 db_lmdb.cpp:35] Opened lmdb val.LMDB
I0803 15:43:02.105202 16203 net.cpp:86] Creating Layer data
I0803 15:43:02.105244 16203 net.cpp:382] data -> data
I0803 15:43:02.105283 16203 net.cpp:382] data -> label
I0803 15:43:02.106007 16203 data_layer.cpp:45] output data size: 50,3,227,227
I0803 15:43:02.220017 16203 net.cpp:124] Setting up data
I0803 15:43:02.220074 16203 net.cpp:131] Top shape: 50 3 227 227 (7729350)
I0803 15:43:02.220084 16203 net.cpp:131] Top shape: 50 (50)
I0803 15:43:02.220090 16203 net.cpp:139] Memory required for data: 30917600
I0803 15:43:02.220100 16203 layer_factory.hpp:77] Creating layer label_data_1_split
I0803 15:43:02.220122 16203 net.cpp:86] Creating Layer label_data_1_split
I0803 15:43:02.220130 16203 net.cpp:408] label_data_1_split <- label
I0803 15:43:02.220147 16203 net.cpp:382] label_data_1_split -> label_data_1_split_0
I0803 15:43:02.220170 16203 net.cpp:382] label_data_1_split -> label_data_1_split_1
I0803 15:43:02.220260 16203 net.cpp:124] Setting up label_data_1_split
I0803 15:43:02.220274 16203 net.cpp:131] Top shape: 50 (50)
I0803 15:43:02.220291 16203 net.cpp:131] Top shape: 50 (50)
I0803 15:43:02.220299 16203 net.cpp:139] Memory required for data: 30918000
I0803 15:43:02.220305 16203 layer_factory.hpp:77] Creating layer conv1
I0803 15:43:02.220329 16203 net.cpp:86] Creating Layer conv1
I0803 15:43:02.220336 16203 net.cpp:408] conv1 <- data
I0803 15:43:02.220348 16203 net.cpp:382] conv1 -> conv1
I0803 15:43:02.230392 16203 net.cpp:124] Setting up conv1
I0803 15:43:02.230435 16203 net.cpp:131] Top shape: 50 96 55 55 (14520000)
I0803 15:43:02.230450 16203 net.cpp:139] Memory required for data: 88998000
I0803 15:43:02.230505 16203 layer_factory.hpp:77] Creating layer relu1
I0803 15:43:02.230528 16203 net.cpp:86] Creating Layer relu1
I0803 15:43:02.230542 16203 net.cpp:408] relu1 <- conv1
I0803 15:43:02.230561 16203 net.cpp:369] relu1 -> conv1 (in-place)
I0803 15:43:02.230979 16203 net.cpp:124] Setting up relu1
I0803 15:43:02.231007 16203 net.cpp:131] Top shape: 50 96 55 55 (14520000)
I0803 15:43:02.231019 16203 net.cpp:139] Memory required for data: 147078000
I0803 15:43:02.231029 16203 layer_factory.hpp:77] Creating layer pool1
I0803 15:43:02.231048 16203 net.cpp:86] Creating Layer pool1
I0803 15:43:02.231060 16203 net.cpp:408] pool1 <- conv1
I0803 15:43:02.231075 16203 net.cpp:382] pool1 -> pool1
I0803 15:43:02.231204 16203 net.cpp:124] Setting up pool1
I0803 15:43:02.231227 16203 net.cpp:131] Top shape: 50 96 27 27 (3499200)
I0803 15:43:02.231238 16203 net.cpp:139] Memory required for data: 161074800
I0803 15:43:02.231248 16203 layer_factory.hpp:77] Creating layer norm1
I0803 15:43:02.231266 16203 net.cpp:86] Creating Layer norm1
I0803 15:43:02.231278 16203 net.cpp:408] norm1 <- pool1
I0803 15:43:02.231292 16203 net.cpp:382] norm1 -> norm1
I0803 15:43:02.232852 16203 net.cpp:124] Setting up norm1
I0803 15:43:02.232885 16203 net.cpp:131] Top shape: 50 96 27 27 (3499200)
I0803 15:43:02.232898 16203 net.cpp:139] Memory required for data: 175071600
I0803 15:43:02.232908 16203 layer_factory.hpp:77] Creating layer conv2
I0803 15:43:02.232946 16203 net.cpp:86] Creating Layer conv2
I0803 15:43:02.232959 16203 net.cpp:408] conv2 <- norm1
I0803 15:43:02.232980 16203 net.cpp:382] conv2 -> conv2
I0803 15:43:02.261212 16203 net.cpp:124] Setting up conv2
I0803 15:43:02.261265 16203 net.cpp:131] Top shape: 50 256 27 27 (9331200)
I0803 15:43:02.261278 16203 net.cpp:139] Memory required for data: 212396400
I0803 15:43:02.261307 16203 layer_factory.hpp:77] Creating layer relu2
I0803 15:43:02.261340 16203 net.cpp:86] Creating Layer relu2
I0803 15:43:02.261353 16203 net.cpp:408] relu2 <- conv2
I0803 15:43:02.261368 16203 net.cpp:369] relu2 -> conv2 (in-place)
I0803 15:43:02.261741 16203 net.cpp:124] Setting up relu2
I0803 15:43:02.261768 16203 net.cpp:131] Top shape: 50 256 27 27 (9331200)
I0803 15:43:02.261780 16203 net.cpp:139] Memory required for data: 249721200
I0803 15:43:02.261788 16203 layer_factory.hpp:77] Creating layer pool2
I0803 15:43:02.261808 16203 net.cpp:86] Creating Layer pool2
I0803 15:43:02.261826 16203 net.cpp:408] pool2 <- conv2
I0803 15:43:02.261837 16203 net.cpp:382] pool2 -> pool2
I0803 15:43:02.261936 16203 net.cpp:124] Setting up pool2
I0803 15:43:02.261956 16203 net.cpp:131] Top shape: 50 256 13 13 (2163200)
I0803 15:43:02.261966 16203 net.cpp:139] Memory required for data: 258374000
I0803 15:43:02.261973 16203 layer_factory.hpp:77] Creating layer norm2
I0803 15:43:02.261992 16203 net.cpp:86] Creating Layer norm2
I0803 15:43:02.262002 16203 net.cpp:408] norm2 <- pool2
I0803 15:43:02.262013 16203 net.cpp:382] norm2 -> norm2
I0803 15:43:02.263327 16203 net.cpp:124] Setting up norm2
I0803 15:43:02.263358 16203 net.cpp:131] Top shape: 50 256 13 13 (2163200)
I0803 15:43:02.263370 16203 net.cpp:139] Memory required for data: 267026800
I0803 15:43:02.263378 16203 layer_factory.hpp:77] Creating layer conv3
I0803 15:43:02.263406 16203 net.cpp:86] Creating Layer conv3
I0803 15:43:02.263417 16203 net.cpp:408] conv3 <- norm2
I0803 15:43:02.263442 16203 net.cpp:382] conv3 -> conv3
I0803 15:43:02.314442 16203 net.cpp:124] Setting up conv3
I0803 15:43:02.314496 16203 net.cpp:131] Top shape: 50 384 13 13 (3244800)
I0803 15:43:02.314504 16203 net.cpp:139] Memory required for data: 280006000
I0803 15:43:02.314541 16203 layer_factory.hpp:77] Creating layer relu3
I0803 15:43:02.314560 16203 net.cpp:86] Creating Layer relu3
I0803 15:43:02.314570 16203 net.cpp:408] relu3 <- conv3
I0803 15:43:02.314585 16203 net.cpp:369] relu3 -> conv3 (in-place)
I0803 15:43:02.315563 16203 net.cpp:124] Setting up relu3
I0803 15:43:02.315587 16203 net.cpp:131] Top shape: 50 384 13 13 (3244800)
I0803 15:43:02.315593 16203 net.cpp:139] Memory required for data: 292985200
I0803 15:43:02.315599 16203 layer_factory.hpp:77] Creating layer conv4
I0803 15:43:02.315621 16203 net.cpp:86] Creating Layer conv4
I0803 15:43:02.315629 16203 net.cpp:408] conv4 <- conv3
I0803 15:43:02.315639 16203 net.cpp:382] conv4 -> conv4
I0803 15:43:02.355855 16203 net.cpp:124] Setting up conv4
I0803 15:43:02.355908 16203 net.cpp:131] Top shape: 50 384 13 13 (3244800)
I0803 15:43:02.355916 16203 net.cpp:139] Memory required for data: 305964400
I0803 15:43:02.355933 16203 layer_factory.hpp:77] Creating layer relu4
I0803 15:43:02.355948 16203 net.cpp:86] Creating Layer relu4
I0803 15:43:02.355955 16203 net.cpp:408] relu4 <- conv4
I0803 15:43:02.355969 16203 net.cpp:369] relu4 -> conv4 (in-place)
I0803 15:43:02.356235 16203 net.cpp:124] Setting up relu4
I0803 15:43:02.356251 16203 net.cpp:131] Top shape: 50 384 13 13 (3244800)
I0803 15:43:02.356256 16203 net.cpp:139] Memory required for data: 318943600
I0803 15:43:02.356261 16203 layer_factory.hpp:77] Creating layer conv5
I0803 15:43:02.356277 16203 net.cpp:86] Creating Layer conv5
I0803 15:43:02.356282 16203 net.cpp:408] conv5 <- conv4
I0803 15:43:02.356294 16203 net.cpp:382] conv5 -> conv5
I0803 15:43:02.378469 16203 net.cpp:124] Setting up conv5
I0803 15:43:02.378523 16203 net.cpp:131] Top shape: 50 256 13 13 (2163200)
I0803 15:43:02.378530 16203 net.cpp:139] Memory required for data: 327596400
I0803 15:43:02.378559 16203 layer_factory.hpp:77] Creating layer relu5
I0803 15:43:02.378576 16203 net.cpp:86] Creating Layer relu5
I0803 15:43:02.378582 16203 net.cpp:408] relu5 <- conv5
I0803 15:43:02.378592 16203 net.cpp:369] relu5 -> conv5 (in-place)
I0803 15:43:02.378821 16203 net.cpp:124] Setting up relu5
I0803 15:43:02.378836 16203 net.cpp:131] Top shape: 50 256 13 13 (2163200)
I0803 15:43:02.378842 16203 net.cpp:139] Memory required for data: 336249200
I0803 15:43:02.378849 16203 layer_factory.hpp:77] Creating layer pool5
I0803 15:43:02.378866 16203 net.cpp:86] Creating Layer pool5
I0803 15:43:02.378873 16203 net.cpp:408] pool5 <- conv5
I0803 15:43:02.378895 16203 net.cpp:382] pool5 -> pool5
I0803 15:43:02.378967 16203 net.cpp:124] Setting up pool5
I0803 15:43:02.378978 16203 net.cpp:131] Top shape: 50 256 6 6 (460800)
I0803 15:43:02.378985 16203 net.cpp:139] Memory required for data: 338092400
I0803 15:43:02.378989 16203 layer_factory.hpp:77] Creating layer fc6
I0803 15:43:02.379004 16203 net.cpp:86] Creating Layer fc6
I0803 15:43:02.379010 16203 net.cpp:408] fc6 <- pool5
I0803 15:43:02.379019 16203 net.cpp:382] fc6 -> fc6
I0803 15:43:03.806905 16203 net.cpp:124] Setting up fc6
I0803 15:43:03.806968 16203 net.cpp:131] Top shape: 50 4096 (204800)
I0803 15:43:03.806974 16203 net.cpp:139] Memory required for data: 338911600
I0803 15:43:03.806993 16203 layer_factory.hpp:77] Creating layer relu6
I0803 15:43:03.807024 16203 net.cpp:86] Creating Layer relu6
I0803 15:43:03.807032 16203 net.cpp:408] relu6 <- fc6
I0803 15:43:03.807044 16203 net.cpp:369] relu6 -> fc6 (in-place)
I0803 15:43:03.808079 16203 net.cpp:124] Setting up relu6
I0803 15:43:03.808094 16203 net.cpp:131] Top shape: 50 4096 (204800)
I0803 15:43:03.808099 16203 net.cpp:139] Memory required for data: 339730800
I0803 15:43:03.808116 16203 layer_factory.hpp:77] Creating layer drop6
I0803 15:43:03.808127 16203 net.cpp:86] Creating Layer drop6
I0803 15:43:03.808132 16203 net.cpp:408] drop6 <- fc6
I0803 15:43:03.808141 16203 net.cpp:369] drop6 -> fc6 (in-place)
I0803 15:43:03.808200 16203 net.cpp:124] Setting up drop6
I0803 15:43:03.808212 16203 net.cpp:131] Top shape: 50 4096 (204800)
I0803 15:43:03.808218 16203 net.cpp:139] Memory required for data: 340550000
I0803 15:43:03.808223 16203 layer_factory.hpp:77] Creating layer fc7
I0803 15:43:03.808235 16203 net.cpp:86] Creating Layer fc7
I0803 15:43:03.808243 16203 net.cpp:408] fc7 <- fc6
I0803 15:43:03.808255 16203 net.cpp:382] fc7 -> fc7
I0803 15:43:04.464221 16203 net.cpp:124] Setting up fc7
I0803 15:43:04.464282 16203 net.cpp:131] Top shape: 50 4096 (204800)
I0803 15:43:04.464288 16203 net.cpp:139] Memory required for data: 341369200
I0803 15:43:04.464305 16203 layer_factory.hpp:77] Creating layer relu7
I0803 15:43:04.464321 16203 net.cpp:86] Creating Layer relu7
I0803 15:43:04.464328 16203 net.cpp:408] relu7 <- fc7
I0803 15:43:04.464341 16203 net.cpp:369] relu7 -> fc7 (in-place)
I0803 15:43:04.464663 16203 net.cpp:124] Setting up relu7
I0803 15:43:04.464679 16203 net.cpp:131] Top shape: 50 4096 (204800)
I0803 15:43:04.464684 16203 net.cpp:139] Memory required for data: 342188400
I0803 15:43:04.464689 16203 layer_factory.hpp:77] Creating layer drop7
I0803 15:43:04.464699 16203 net.cpp:86] Creating Layer drop7
I0803 15:43:04.464704 16203 net.cpp:408] drop7 <- fc7
I0803 15:43:04.464715 16203 net.cpp:369] drop7 -> fc7 (in-place)
I0803 15:43:04.464757 16203 net.cpp:124] Setting up drop7
I0803 15:43:04.464768 16203 net.cpp:131] Top shape: 50 4096 (204800)
I0803 15:43:04.464776 16203 net.cpp:139] Memory required for data: 343007600
I0803 15:43:04.464779 16203 layer_factory.hpp:77] Creating layer fc8
I0803 15:43:04.464793 16203 net.cpp:86] Creating Layer fc8
I0803 15:43:04.464800 16203 net.cpp:408] fc8 <- fc7
I0803 15:43:04.464810 16203 net.cpp:382] fc8 -> fc8
I0803 15:43:04.465279 16203 net.cpp:124] Setting up fc8
I0803 15:43:04.465296 16203 net.cpp:131] Top shape: 50 2 (100)
I0803 15:43:04.465302 16203 net.cpp:139] Memory required for data: 343008000
I0803 15:43:04.465312 16203 layer_factory.hpp:77] Creating layer fc8_fc8_0_split
I0803 15:43:04.465322 16203 net.cpp:86] Creating Layer fc8_fc8_0_split
I0803 15:43:04.465327 16203 net.cpp:408] fc8_fc8_0_split <- fc8
I0803 15:43:04.465334 16203 net.cpp:382] fc8_fc8_0_split -> fc8_fc8_0_split_0
I0803 15:43:04.465344 16203 net.cpp:382] fc8_fc8_0_split -> fc8_fc8_0_split_1
I0803 15:43:04.465401 16203 net.cpp:124] Setting up fc8_fc8_0_split
I0803 15:43:04.465412 16203 net.cpp:131] Top shape: 50 2 (100)
I0803 15:43:04.465420 16203 net.cpp:131] Top shape: 50 2 (100)
I0803 15:43:04.465425 16203 net.cpp:139] Memory required for data: 343008800
I0803 15:43:04.465430 16203 layer_factory.hpp:77] Creating layer accuracy
I0803 15:43:04.465453 16203 net.cpp:86] Creating Layer accuracy
I0803 15:43:04.465461 16203 net.cpp:408] accuracy <- fc8_fc8_0_split_0
I0803 15:43:04.465466 16203 net.cpp:408] accuracy <- label_data_1_split_0
I0803 15:43:04.465477 16203 net.cpp:382] accuracy -> accuracy
…
