…
I0803 11:16:27.450736 14409 net.cpp:296] The NetState phase (0) differed from the phase (1) specified by a rule in layer data
I0803 11:16:27.450775 14409 net.cpp:296] The NetState phase (0) differed from the phase (1) specified by a rule in layer accuracy
I0803 11:16:27.450976 14409 net.cpp:53] Initializing net from parameters: 
name: "CaffeNet"
state {
  phase: TRAIN
}
layer {
  name: "data"
  type: "Data"
  top: "data"
  top: "label"
  include {
    phase: TRAIN
  }
  transform_param {
    mirror: true
    crop_size: 227
    mean_value: 104
    mean_value: 117
    mean_value: 123
  }
  data_param {
    source: "train.LMDB"
    batch_size: 256
    backend: LMDB
  }
}
layer {
  name: "conv1"
  type: "Convolution"
  bottom: "data"
  top: "conv1"
  param {
    lr_mult: 1
    decay_mult: 1
  }
  param {
    lr_mult: 2
    decay_mult: 0
  }
  convolution_param {
    num_output: 96
    kernel_size: 11
    stride: 4
    weight_filler {
      type: "gaussian"
      std: 0.01
    }
    bias_filler {
      type: "constant"
      value: 0
    }
  }
}
layer {
  name: "relu1"
  type: "ReLU"
  bottom: "conv1"
  top: "conv1"
}
layer {
  name: "pool1"
  type: "Pooling"
  bottom: "conv1"
  top: "pool1"
  pooling_param {
    pool: MAX
    kernel_size: 3
    stride: 2
  }
}
layer {
  name: "norm1"
  type: "LRN"
  bottom: "pool1"
  top: "norm1"
  lrn_param {
    local_size: 5
    alpha: 0.0001
    beta: 0.75
  }
}
layer {
  name: "conv2"
  type: "Convolution"
  bottom: "norm1"
  top: "conv2"
  param {
    lr_mult: 1
    decay_mult: 1
  }
  param {
    lr_mult: 2
    decay_mult: 0
  }
  convolution_param {
    num_output: 256
    pad: 2
    kernel_size: 5
    group: 2
    weight_filler {
      type: "gaussian"
      std: 0.01
    }
    bias_filler {
      type: "constant"
      value: 1
    }
  }
}
layer {
  name: "relu2"
  type: "ReLU"
  bottom: "conv2"
  top: "conv2"
}
layer {
  name: "pool2"
  type: "Pooling"
  bottom: "conv2"
  top: "pool2"
  pooling_param {
    pool: MAX
    kernel_size: 3
    stride: 2
  }
}
layer {
  name: "norm2"
  type: "LRN"
  bottom: "pool2"
  top: "norm2"
  lrn_param {
    local_size: 5
    alpha: 0.0001
    beta: 0.75
  }
}
layer {
  name: "conv3"
  type: "Convolution"
  bottom: "norm2"
  top: "conv3"
  param {
    lr_mult: 1
    decay_mult: 1
  }
  param {
    lr_mult: 2
    decay_mult: 0
  }
  convolution_param {
    num_output: 384
    pad: 1
    kernel_size: 3
    weight_filler {
      type: "gaussian"
      std: 0.01
    }
    bias_filler {
      type: "constant"
      value: 0
    }
  }
}
layer {
  name: "relu3"
  type: "ReLU"
  bottom: "conv3"
  top: "conv3"
}
layer {
  name: "conv4"
  type: "Convolution"
  bottom: "conv3"
  top: "conv4"
  param {
    lr_mult: 1
    decay_mult: 1
  }
  param {
    lr_mult: 2
    decay_mult: 0
  }
  convolution_param {
    num_output: 384
    pad: 1
    kernel_size: 3
    group: 2
    weight_filler {
      type: "gaussian"
      std: 0.01
    }
    bias_filler {
      type: "constant"
      value: 1
    }
  }
}
layer {
  name: "relu4"
  type: "ReLU"
  bottom: "conv4"
  top: "conv4"
}
layer {
  name: "conv5"
  type: "Convolution"
  bottom: "conv4"
  top: "conv5"
  param {
    lr_mult: 1
    decay_mult: 1
  }
  param {
    lr_mult: 2
    decay_mult: 0
  }
  convolution_param {
    num_output: 256
    pad: 1
    kernel_size: 3
    group: 2
    weight_filler {
      type: "gaussian"
      std: 0.01
    }
    bias_filler {
      type: "constant"
      value: 1
    }
  }
}
layer {
  name: "relu5"
  type: "ReLU"
  bottom: "conv5"
  top: "conv5"
}
layer {
  name: "pool5"
  type: "Pooling"
  bottom: "conv5"
  top: "pool5"
  pooling_param {
    pool: MAX
    kernel_size: 3
    stride: 2
  }
}
layer {
  name: "fc6"
  type: "InnerProduct"
  bottom: "pool5"
  top: "fc6"
  param {
    lr_mult: 1
    decay_mult: 1
  }
  param {
    lr_mult: 2
    decay_mult: 0
  }
  inner_product_param {
    num_output: 4096
    weight_filler {
      type: "gaussian"
      std: 0.005
    }
    bias_filler {
      type: "constant"
      value: 1
    }
  }
}
layer {
  name: "relu6"
  type: "ReLU"
  bottom: "fc6"
  top: "fc6"
}
layer {
  name: "drop6"
  type: "Dropout"
  bottom: "fc6"
  top: "fc6"
  dropout_param {
    dropout_ratio: 0.5
  }
}
layer {
  name: "fc7"
  type: "InnerProduct"
  bottom: "fc6"
  top: "fc7"
  param {
    lr_mult: 1
    decay_mult: 1
  }
  param {
    lr_mult: 2
    decay_mult: 0
  }
  inner_product_param {
    num_output: 4096
    weight_filler {
      type: "gaussian"
      std: 0.005
    }
    bias_filler {
      type: "constant"
      value: 1
    }
  }
}
layer {
  name: "relu7"
  type: "ReLU"
  bottom: "fc7"
  top: "fc7"
}
layer {
  name: "drop7"
  type: "Dropout"
  bottom: "fc7"
  top: "fc7"
  dropout_param {
    dropout_ratio: 0.5
  }
}
layer {
  name: "fc8"
  type: "InnerProduct"
  bottom: "fc7"
  top: "fc8"
  param {
    lr_mult: 1
    decay_mult: 1
  }
  param {
    lr_mult: 2
    decay_mult: 0
  }
  inner_product_param {
    num_output: 2
    weight_filler {
      type: "gaussian"
      std: 0.01
    }
    bias_filler {
      type: "constant"
      value: 0
    }
  }
}
layer {
  name: "loss"
  type: "SoftmaxWithLoss"
  bottom: "fc8"
  bottom: "label"
  top: "loss"
}
I0803 11:16:27.451084 14409 layer_factory.hpp:77] Creating layer data
I0803 11:16:27.453292 14409 db_lmdb.cpp:35] Opened lmdb train.LMDB
I0803 11:16:27.453474 14409 net.cpp:86] Creating Layer data
I0803 11:16:27.453490 14409 net.cpp:382] data -> data
I0803 11:16:27.453513 14409 net.cpp:382] data -> label
I0803 11:16:27.454948 14409 data_layer.cpp:45] output data size: 256,3,227,227
I0803 11:16:27.871841 14409 net.cpp:124] Setting up data
I0803 11:16:27.871902 14409 net.cpp:131] Top shape: 256 3 227 227 (39574272)
I0803 11:16:27.871912 14409 net.cpp:131] Top shape: 256 (256)
I0803 11:16:27.871917 14409 net.cpp:139] Memory required for data: 158298112
I0803 11:16:27.871927 14409 layer_factory.hpp:77] Creating layer conv1
I0803 11:16:27.871966 14409 net.cpp:86] Creating Layer conv1
I0803 11:16:27.871976 14409 net.cpp:408] conv1 <- data
I0803 11:16:27.871990 14409 net.cpp:382] conv1 -> conv1
I0803 11:16:28.177271 14409 net.cpp:124] Setting up conv1
I0803 11:16:28.177326 14409 net.cpp:131] Top shape: 256 96 55 55 (74342400)
I0803 11:16:28.177333 14409 net.cpp:139] Memory required for data: 455667712
I0803 11:16:28.177356 14409 layer_factory.hpp:77] Creating layer relu1
I0803 11:16:28.177372 14409 net.cpp:86] Creating Layer relu1
I0803 11:16:28.177392 14409 net.cpp:408] relu1 <- conv1
I0803 11:16:28.177402 14409 net.cpp:369] relu1 -> conv1 (in-place)
I0803 11:16:28.178167 14409 net.cpp:124] Setting up relu1
I0803 11:16:28.178184 14409 net.cpp:131] Top shape: 256 96 55 55 (74342400)
I0803 11:16:28.178189 14409 net.cpp:139] Memory required for data: 753037312
I0803 11:16:28.178207 14409 layer_factory.hpp:77] Creating layer pool1
I0803 11:16:28.178217 14409 net.cpp:86] Creating Layer pool1
I0803 11:16:28.178222 14409 net.cpp:408] pool1 <- conv1
I0803 11:16:28.178230 14409 net.cpp:382] pool1 -> pool1
I0803 11:16:28.178299 14409 net.cpp:124] Setting up pool1
I0803 11:16:28.178313 14409 net.cpp:131] Top shape: 256 96 27 27 (17915904)
I0803 11:16:28.178318 14409 net.cpp:139] Memory required for data: 824700928
I0803 11:16:28.178323 14409 layer_factory.hpp:77] Creating layer norm1
I0803 11:16:28.178336 14409 net.cpp:86] Creating Layer norm1
I0803 11:16:28.178344 14409 net.cpp:408] norm1 <- pool1
I0803 11:16:28.178350 14409 net.cpp:382] norm1 -> norm1
I0803 11:16:28.178589 14409 net.cpp:124] Setting up norm1
I0803 11:16:28.178606 14409 net.cpp:131] Top shape: 256 96 27 27 (17915904)
I0803 11:16:28.178612 14409 net.cpp:139] Memory required for data: 896364544
I0803 11:16:28.178618 14409 layer_factory.hpp:77] Creating layer conv2
I0803 11:16:28.178635 14409 net.cpp:86] Creating Layer conv2
I0803 11:16:28.178642 14409 net.cpp:408] conv2 <- norm1
I0803 11:16:28.178650 14409 net.cpp:382] conv2 -> conv2
I0803 11:16:28.194979 14409 net.cpp:124] Setting up conv2
I0803 11:16:28.194999 14409 net.cpp:131] Top shape: 256 256 27 27 (47775744)
I0803 11:16:28.195006 14409 net.cpp:139] Memory required for data: 1087467520
I0803 11:16:28.195020 14409 layer_factory.hpp:77] Creating layer relu2
I0803 11:16:28.195030 14409 net.cpp:86] Creating Layer relu2
I0803 11:16:28.195037 14409 net.cpp:408] relu2 <- conv2
I0803 11:16:28.195047 14409 net.cpp:369] relu2 -> conv2 (in-place)
I0803 11:16:28.195276 14409 net.cpp:124] Setting up relu2
I0803 11:16:28.195291 14409 net.cpp:131] Top shape: 256 256 27 27 (47775744)
I0803 11:16:28.195297 14409 net.cpp:139] Memory required for data: 1278570496
I0803 11:16:28.195303 14409 layer_factory.hpp:77] Creating layer pool2
I0803 11:16:28.195313 14409 net.cpp:86] Creating Layer pool2
I0803 11:16:28.195320 14409 net.cpp:408] pool2 <- conv2
I0803 11:16:28.195327 14409 net.cpp:382] pool2 -> pool2
I0803 11:16:28.195381 14409 net.cpp:124] Setting up pool2
I0803 11:16:28.195394 14409 net.cpp:131] Top shape: 256 256 13 13 (11075584)
I0803 11:16:28.195400 14409 net.cpp:139] Memory required for data: 1322872832
I0803 11:16:28.195405 14409 layer_factory.hpp:77] Creating layer norm2
I0803 11:16:28.195420 14409 net.cpp:86] Creating Layer norm2
I0803 11:16:28.195425 14409 net.cpp:408] norm2 <- pool2
I0803 11:16:28.195433 14409 net.cpp:382] norm2 -> norm2
I0803 11:16:28.196236 14409 net.cpp:124] Setting up norm2
I0803 11:16:28.196254 14409 net.cpp:131] Top shape: 256 256 13 13 (11075584)
I0803 11:16:28.196259 14409 net.cpp:139] Memory required for data: 1367175168
I0803 11:16:28.196265 14409 layer_factory.hpp:77] Creating layer conv3
I0803 11:16:28.196281 14409 net.cpp:86] Creating Layer conv3
I0803 11:16:28.196288 14409 net.cpp:408] conv3 <- norm2
I0803 11:16:28.196300 14409 net.cpp:382] conv3 -> conv3
I0803 11:16:28.236941 14409 net.cpp:124] Setting up conv3
I0803 11:16:28.236976 14409 net.cpp:131] Top shape: 256 384 13 13 (16613376)
I0803 11:16:28.236982 14409 net.cpp:139] Memory required for data: 1433628672
I0803 11:16:28.237000 14409 layer_factory.hpp:77] Creating layer relu3
I0803 11:16:28.237020 14409 net.cpp:86] Creating Layer relu3
I0803 11:16:28.237030 14409 net.cpp:408] relu3 <- conv3
I0803 11:16:28.237038 14409 net.cpp:369] relu3 -> conv3 (in-place)
I0803 11:16:28.237267 14409 net.cpp:124] Setting up relu3
I0803 11:16:28.237282 14409 net.cpp:131] Top shape: 256 384 13 13 (16613376)
I0803 11:16:28.237287 14409 net.cpp:139] Memory required for data: 1500082176
I0803 11:16:28.237294 14409 layer_factory.hpp:77] Creating layer conv4
I0803 11:16:28.237313 14409 net.cpp:86] Creating Layer conv4
I0803 11:16:28.237319 14409 net.cpp:408] conv4 <- conv3
I0803 11:16:28.237330 14409 net.cpp:382] conv4 -> conv4
I0803 11:16:28.266978 14409 net.cpp:124] Setting up conv4
I0803 11:16:28.266999 14409 net.cpp:131] Top shape: 256 384 13 13 (16613376)
I0803 11:16:28.267004 14409 net.cpp:139] Memory required for data: 1566535680
I0803 11:16:28.267014 14409 layer_factory.hpp:77] Creating layer relu4
I0803 11:16:28.267025 14409 net.cpp:86] Creating Layer relu4
I0803 11:16:28.267030 14409 net.cpp:408] relu4 <- conv4
I0803 11:16:28.267037 14409 net.cpp:369] relu4 -> conv4 (in-place)
I0803 11:16:28.267256 14409 net.cpp:124] Setting up relu4
I0803 11:16:28.267271 14409 net.cpp:131] Top shape: 256 384 13 13 (16613376)
I0803 11:16:28.267277 14409 net.cpp:139] Memory required for data: 1632989184
I0803 11:16:28.267282 14409 layer_factory.hpp:77] Creating layer conv5
I0803 11:16:28.267302 14409 net.cpp:86] Creating Layer conv5
I0803 11:16:28.267308 14409 net.cpp:408] conv5 <- conv4
I0803 11:16:28.267316 14409 net.cpp:382] conv5 -> conv5
I0803 11:16:28.288440 14409 net.cpp:124] Setting up conv5
I0803 11:16:28.288458 14409 net.cpp:131] Top shape: 256 256 13 13 (11075584)
I0803 11:16:28.288477 14409 net.cpp:139] Memory required for data: 1677291520
I0803 11:16:28.288493 14409 layer_factory.hpp:77] Creating layer relu5
I0803 11:16:28.288504 14409 net.cpp:86] Creating Layer relu5
I0803 11:16:28.288511 14409 net.cpp:408] relu5 <- conv5
I0803 11:16:28.288519 14409 net.cpp:369] relu5 -> conv5 (in-place)
I0803 11:16:28.288743 14409 net.cpp:124] Setting up relu5
I0803 11:16:28.288758 14409 net.cpp:131] Top shape: 256 256 13 13 (11075584)
I0803 11:16:28.288764 14409 net.cpp:139] Memory required for data: 1721593856
I0803 11:16:28.288770 14409 layer_factory.hpp:77] Creating layer pool5
I0803 11:16:28.288784 14409 net.cpp:86] Creating Layer pool5
I0803 11:16:28.288790 14409 net.cpp:408] pool5 <- conv5
I0803 11:16:28.288800 14409 net.cpp:382] pool5 -> pool5
I0803 11:16:28.288857 14409 net.cpp:124] Setting up pool5
I0803 11:16:28.288872 14409 net.cpp:131] Top shape: 256 256 6 6 (2359296)
I0803 11:16:28.288878 14409 net.cpp:139] Memory required for data: 1731031040
I0803 11:16:28.288883 14409 layer_factory.hpp:77] Creating layer fc6
I0803 11:16:28.288902 14409 net.cpp:86] Creating Layer fc6
I0803 11:16:28.288908 14409 net.cpp:408] fc6 <- pool5
I0803 11:16:28.288919 14409 net.cpp:382] fc6 -> fc6
I0803 11:16:29.710117 14409 net.cpp:124] Setting up fc6
I0803 11:16:29.710181 14409 net.cpp:131] Top shape: 256 4096 (1048576)
I0803 11:16:29.710188 14409 net.cpp:139] Memory required for data: 1735225344
I0803 11:16:29.710203 14409 layer_factory.hpp:77] Creating layer relu6
I0803 11:16:29.710217 14409 net.cpp:86] Creating Layer relu6
I0803 11:16:29.710223 14409 net.cpp:408] relu6 <- fc6
I0803 11:16:29.710233 14409 net.cpp:369] relu6 -> fc6 (in-place)
I0803 11:16:29.711223 14409 net.cpp:124] Setting up relu6
I0803 11:16:29.711251 14409 net.cpp:131] Top shape: 256 4096 (1048576)
I0803 11:16:29.711257 14409 net.cpp:139] Memory required for data: 1739419648
I0803 11:16:29.711262 14409 layer_factory.hpp:77] Creating layer drop6
I0803 11:16:29.711285 14409 net.cpp:86] Creating Layer drop6
I0803 11:16:29.711293 14409 net.cpp:408] drop6 <- fc6
I0803 11:16:29.711302 14409 net.cpp:369] drop6 -> fc6 (in-place)
I0803 11:16:29.711338 14409 net.cpp:124] Setting up drop6
I0803 11:16:29.711349 14409 net.cpp:131] Top shape: 256 4096 (1048576)
I0803 11:16:29.711354 14409 net.cpp:139] Memory required for data: 1743613952
I0803 11:16:29.711359 14409 layer_factory.hpp:77] Creating layer fc7
I0803 11:16:29.711371 14409 net.cpp:86] Creating Layer fc7
I0803 11:16:29.711377 14409 net.cpp:408] fc7 <- fc6
I0803 11:16:29.711387 14409 net.cpp:382] fc7 -> fc7
I0803 11:16:30.344097 14409 net.cpp:124] Setting up fc7
I0803 11:16:30.344154 14409 net.cpp:131] Top shape: 256 4096 (1048576)
I0803 11:16:30.344161 14409 net.cpp:139] Memory required for data: 1747808256
I0803 11:16:30.344174 14409 layer_factory.hpp:77] Creating layer relu7
I0803 11:16:30.344189 14409 net.cpp:86] Creating Layer relu7
I0803 11:16:30.344195 14409 net.cpp:408] relu7 <- fc7
I0803 11:16:30.344208 14409 net.cpp:369] relu7 -> fc7 (in-place)
I0803 11:16:30.345165 14409 net.cpp:124] Setting up relu7
I0803 11:16:30.345193 14409 net.cpp:131] Top shape: 256 4096 (1048576)
I0803 11:16:30.345198 14409 net.cpp:139] Memory required for data: 1752002560
I0803 11:16:30.345204 14409 layer_factory.hpp:77] Creating layer drop7
I0803 11:16:30.345214 14409 net.cpp:86] Creating Layer drop7
I0803 11:16:30.345218 14409 net.cpp:408] drop7 <- fc7
I0803 11:16:30.345230 14409 net.cpp:369] drop7 -> fc7 (in-place)
I0803 11:16:30.345263 14409 net.cpp:124] Setting up drop7
I0803 11:16:30.345274 14409 net.cpp:131] Top shape: 256 4096 (1048576)
I0803 11:16:30.345280 14409 net.cpp:139] Memory required for data: 1756196864
I0803 11:16:30.345285 14409 layer_factory.hpp:77] Creating layer fc8
I0803 11:16:30.345299 14409 net.cpp:86] Creating Layer fc8
I0803 11:16:30.345304 14409 net.cpp:408] fc8 <- fc7
I0803 11:16:30.345312 14409 net.cpp:382] fc8 -> fc8
I0803 11:16:30.346426 14409 net.cpp:124] Setting up fc8
I0803 11:16:30.346441 14409 net.cpp:131] Top shape: 256 2 (512)
I0803 11:16:30.346447 14409 net.cpp:139] Memory required for data: 1756198912
I0803 11:16:30.346457 14409 layer_factory.hpp:77] Creating layer loss
I0803 11:16:30.346467 14409 net.cpp:86] Creating Layer loss
I0803 11:16:30.346472 14409 net.cpp:408] loss <- fc8
I0803 11:16:30.346485 14409 net.cpp:408] loss <- label
I0803 11:16:30.346493 14409 net.cpp:382] loss -> loss
I0803 11:16:30.346509 14409 layer_factory.hpp:77] Creating layer loss
…
I0803 11:16:30.348430 14409 solver.cpp:173] Creating test net (#0) specified by net file: caffenet/train_val.prototxt
I0803 11:16:30.348490 14409 net.cpp:296] The NetState phase (1) differed from the phase (0) specified by a rule in layer data
I0803 11:16:30.348759 14409 net.cpp:53] Initializing net from parameters: 
name: "CaffeNet"
state {
  phase: TEST
}
layer {
  name: "data"
  type: "Data"
  top: "data"
  top: "label"
  include {
    phase: TEST
  }
  transform_param {
    mirror: true
    crop_size: 227
    mean_value: 104
    mean_value: 117
    mean_value: 123
  }
  data_param {
    source: "val.LMDB"
    batch_size: 50
    backend: LMDB
  }
}
layer {
  name: "conv1"
  type: "Convolution"
  bottom: "data"
  top: "conv1"
  param {
    lr_mult: 1
    decay_mult: 1
  }
  param {
    lr_mult: 2
    decay_mult: 0
  }
  convolution_param {
    num_output: 96
    kernel_size: 11
    stride: 4
    weight_filler {
      type: "gaussian"
      std: 0.01
    }
    bias_filler {
      type: "constant"
      value: 0
    }
  }
}
layer {
  name: "relu1"
  type: "ReLU"
  bottom: "conv1"
  top: "conv1"
}
layer {
  name: "pool1"
  type: "Pooling"
  bottom: "conv1"
  top: "pool1"
  pooling_param {
    pool: MAX
    kernel_size: 3
    stride: 2
  }
}
layer {
  name: "norm1"
  type: "LRN"
  bottom: "pool1"
  top: "norm1"
  lrn_param {
    local_size: 5
    alpha: 0.0001
    beta: 0.75
  }
}
layer {
  name: "conv2"
  type: "Convolution"
  bottom: "norm1"
  top: "conv2"
  param {
    lr_mult: 1
    decay_mult: 1
  }
  param {
    lr_mult: 2
    decay_mult: 0
  }
  convolution_param {
    num_output: 256
    pad: 2
    kernel_size: 5
    group: 2
    weight_filler {
      type: "gaussian"
      std: 0.01
    }
    bias_filler {
      type: "constant"
      value: 1
    }
  }
}
layer {
  name: "relu2"
  type: "ReLU"
  bottom: "conv2"
  top: "conv2"
}
layer {
  name: "pool2"
  type: "Pooling"
  bottom: "conv2"
  top: "pool2"
  pooling_param {
    pool: MAX
    kernel_size: 3
    stride: 2
  }
}
layer {
  name: "norm2"
  type: "LRN"
  bottom: "pool2"
  top: "norm2"
  lrn_param {
    local_size: 5
    alpha: 0.0001
    beta: 0.75
  }
}
layer {
  name: "conv3"
  type: "Convolution"
  bottom: "norm2"
  top: "conv3"
  param {
    lr_mult: 1
    decay_mult: 1
  }
  param {
    lr_mult: 2
    decay_mult: 0
  }
  convolution_param {
    num_output: 384
    pad: 1
    kernel_size: 3
    weight_filler {
      type: "gaussian"
      std: 0.01
    }
    bias_filler {
      type: "constant"
      value: 0
    }
  }
}
layer {
  name: "relu3"
  type: "ReLU"
  bottom: "conv3"
  top: "conv3"
}
layer {
  name: "conv4"
  type: "Convolution"
  bottom: "conv3"
  top: "conv4"
  param {
    lr_mult: 1
    decay_mult: 1
  }
  param {
    lr_mult: 2
    decay_mult: 0
  }
  convolution_param {
    num_output: 384
    pad: 1
    kernel_size: 3
    group: 2
    weight_filler {
      type: "gaussian"
      std: 0.01
    }
    bias_filler {
      type: "constant"
      value: 1
    }
  }
}
layer {
  name: "relu4"
  type: "ReLU"
  bottom: "conv4"
  top: "conv4"
}
layer {
  name: "conv5"
  type: "Convolution"
  bottom: "conv4"
  top: "conv5"
  param {
    lr_mult: 1
    decay_mult: 1
  }
  param {
    lr_mult: 2
    decay_mult: 0
  }
  convolution_param {
    num_output: 256
    pad: 1
    kernel_size: 3
    group: 2
    weight_filler {
      type: "gaussian"
      std: 0.01
    }
    bias_filler {
      type: "constant"
      value: 1
    }
  }
}
layer {
  name: "relu5"
  type: "ReLU"
  bottom: "conv5"
  top: "conv5"
}
layer {
  name: "pool5"
  type: "Pooling"
  bottom: "conv5"
  top: "pool5"
  pooling_param {
    pool: MAX
    kernel_size: 3
    stride: 2
  }
}
layer {
  name: "fc6"
  type: "InnerProduct"
  bottom: "pool5"
  top: "fc6"
  param {
    lr_mult: 1
    decay_mult: 1
  }
  param {
    lr_mult: 2
    decay_mult: 0
  }
  inner_product_param {
    num_output: 4096
    weight_filler {
      type: "gaussian"
      std: 0.005
    }
    bias_filler {
      type: "constant"
      value: 1
    }
  }
}
layer {
  name: "relu6"
  type: "ReLU"
  bottom: "fc6"
  top: "fc6"
}
layer {
  name: "drop6"
  type: "Dropout"
  bottom: "fc6"
  top: "fc6"
  dropout_param {
    dropout_ratio: 0.5
  }
}
layer {
  name: "fc7"
  type: "InnerProduct"
  bottom: "fc6"
  top: "fc7"
  param {
    lr_mult: 1
    decay_mult: 1
  }
  param {
    lr_mult: 2
    decay_mult: 0
  }
  inner_product_param {
    num_output: 4096
    weight_filler {
      type: "gaussian"
      std: 0.005
    }
    bias_filler {
      type: "constant"
      value: 1
    }
  }
}
layer {
  name: "relu7"
  type: "ReLU"
  bottom: "fc7"
  top: "fc7"
}
layer {
  name: "drop7"
  type: "Dropout"
  bottom: "fc7"
  top: "fc7"
  dropout_param {
    dropout_ratio: 0.5
  }
}
layer {
  name: "fc8"
  type: "InnerProduct"
  bottom: "fc7"
  top: "fc8"
  param {
    lr_mult: 1
    decay_mult: 1
  }
  param {
    lr_mult: 2
    decay_mult: 0
  }
  inner_product_param {
    num_output: 2
    weight_filler {
      type: "gaussian"
      std: 0.01
    }
    bias_filler {
      type: "constant"
      value: 0
    }
  }
}
layer {
  name: "accuracy"
  type: "Accuracy"
  bottom: "fc8"
  bottom: "label"
  top: "accuracy"
  include {
    phase: TEST
  }
}
layer {
  name: "loss"
  type: "SoftmaxWithLoss"
  bottom: "fc8"
  bottom: "label"
  top: "loss"
}
I0803 11:16:30.348896 14409 layer_factory.hpp:77] Creating layer data
I0803 11:16:30.350726 14409 db_lmdb.cpp:35] Opened lmdb val.LMDB
I0803 11:16:30.350908 14409 net.cpp:86] Creating Layer data
I0803 11:16:30.350922 14409 net.cpp:382] data -> data
I0803 11:16:30.350936 14409 net.cpp:382] data -> label
I0803 11:16:30.351305 14409 data_layer.cpp:45] output data size: 50,3,227,227
I0803 11:16:30.438508 14409 net.cpp:124] Setting up data
I0803 11:16:30.438555 14409 net.cpp:131] Top shape: 50 3 227 227 (7729350)
I0803 11:16:30.438563 14409 net.cpp:131] Top shape: 50 (50)
I0803 11:16:30.438570 14409 net.cpp:139] Memory required for data: 30917600
I0803 11:16:30.438580 14409 layer_factory.hpp:77] Creating layer label_data_1_split
I0803 11:16:30.438598 14409 net.cpp:86] Creating Layer label_data_1_split
I0803 11:16:30.438606 14409 net.cpp:408] label_data_1_split <- label
I0803 11:16:30.438616 14409 net.cpp:382] label_data_1_split -> label_data_1_split_0
I0803 11:16:30.438630 14409 net.cpp:382] label_data_1_split -> label_data_1_split_1
I0803 11:16:30.438706 14409 net.cpp:124] Setting up label_data_1_split
I0803 11:16:30.438719 14409 net.cpp:131] Top shape: 50 (50)
I0803 11:16:30.438726 14409 net.cpp:131] Top shape: 50 (50)
I0803 11:16:30.438730 14409 net.cpp:139] Memory required for data: 30918000
I0803 11:16:30.438737 14409 layer_factory.hpp:77] Creating layer conv1
I0803 11:16:30.438758 14409 net.cpp:86] Creating Layer conv1
I0803 11:16:30.438765 14409 net.cpp:408] conv1 <- data
I0803 11:16:30.438774 14409 net.cpp:382] conv1 -> conv1
I0803 11:16:30.448282 14409 net.cpp:124] Setting up conv1
I0803 11:16:30.448350 14409 net.cpp:131] Top shape: 50 96 55 55 (14520000)
I0803 11:16:30.448365 14409 net.cpp:139] Memory required for data: 88998000
I0803 11:16:30.448402 14409 layer_factory.hpp:77] Creating layer relu1
I0803 11:16:30.448427 14409 net.cpp:86] Creating Layer relu1
I0803 11:16:30.448443 14409 net.cpp:408] relu1 <- conv1
I0803 11:16:30.448458 14409 net.cpp:369] relu1 -> conv1 (in-place)
I0803 11:16:30.448879 14409 net.cpp:124] Setting up relu1
I0803 11:16:30.448909 14409 net.cpp:131] Top shape: 50 96 55 55 (14520000)
I0803 11:16:30.448918 14409 net.cpp:139] Memory required for data: 147078000
I0803 11:16:30.448928 14409 layer_factory.hpp:77] Creating layer pool1
I0803 11:16:30.448951 14409 net.cpp:86] Creating Layer pool1
I0803 11:16:30.448961 14409 net.cpp:408] pool1 <- conv1
I0803 11:16:30.448976 14409 net.cpp:382] pool1 -> pool1
I0803 11:16:30.449097 14409 net.cpp:124] Setting up pool1
I0803 11:16:30.449121 14409 net.cpp:131] Top shape: 50 96 27 27 (3499200)
I0803 11:16:30.449133 14409 net.cpp:139] Memory required for data: 161074800
I0803 11:16:30.449142 14409 layer_factory.hpp:77] Creating layer norm1
I0803 11:16:30.449162 14409 net.cpp:86] Creating Layer norm1
I0803 11:16:30.449175 14409 net.cpp:408] norm1 <- pool1
I0803 11:16:30.449198 14409 net.cpp:382] norm1 -> norm1
I0803 11:16:30.450764 14409 net.cpp:124] Setting up norm1
I0803 11:16:30.450800 14409 net.cpp:131] Top shape: 50 96 27 27 (3499200)
I0803 11:16:30.450814 14409 net.cpp:139] Memory required for data: 175071600
I0803 11:16:30.450827 14409 layer_factory.hpp:77] Creating layer conv2
I0803 11:16:30.450858 14409 net.cpp:86] Creating Layer conv2
I0803 11:16:30.450872 14409 net.cpp:408] conv2 <- norm1
I0803 11:16:30.450891 14409 net.cpp:382] conv2 -> conv2
I0803 11:16:30.479563 14409 net.cpp:124] Setting up conv2
I0803 11:16:30.479620 14409 net.cpp:131] Top shape: 50 256 27 27 (9331200)
I0803 11:16:30.479629 14409 net.cpp:139] Memory required for data: 212396400
I0803 11:16:30.479661 14409 layer_factory.hpp:77] Creating layer relu2
I0803 11:16:30.479682 14409 net.cpp:86] Creating Layer relu2
I0803 11:16:30.479691 14409 net.cpp:408] relu2 <- conv2
I0803 11:16:30.479710 14409 net.cpp:369] relu2 -> conv2 (in-place)
I0803 11:16:30.480085 14409 net.cpp:124] Setting up relu2
I0803 11:16:30.480109 14409 net.cpp:131] Top shape: 50 256 27 27 (9331200)
I0803 11:16:30.480118 14409 net.cpp:139] Memory required for data: 249721200
I0803 11:16:30.480125 14409 layer_factory.hpp:77] Creating layer pool2
I0803 11:16:30.480149 14409 net.cpp:86] Creating Layer pool2
I0803 11:16:30.480159 14409 net.cpp:408] pool2 <- conv2
I0803 11:16:30.480171 14409 net.cpp:382] pool2 -> pool2
I0803 11:16:30.480276 14409 net.cpp:124] Setting up pool2
I0803 11:16:30.480298 14409 net.cpp:131] Top shape: 50 256 13 13 (2163200)
I0803 11:16:30.480307 14409 net.cpp:139] Memory required for data: 258374000
I0803 11:16:30.480316 14409 layer_factory.hpp:77] Creating layer norm2
I0803 11:16:30.480337 14409 net.cpp:86] Creating Layer norm2
I0803 11:16:30.480350 14409 net.cpp:408] norm2 <- pool2
I0803 11:16:30.480361 14409 net.cpp:382] norm2 -> norm2
I0803 11:16:30.481647 14409 net.cpp:124] Setting up norm2
I0803 11:16:30.481673 14409 net.cpp:131] Top shape: 50 256 13 13 (2163200)
I0803 11:16:30.481681 14409 net.cpp:139] Memory required for data: 267026800
I0803 11:16:30.481690 14409 layer_factory.hpp:77] Creating layer conv3
I0803 11:16:30.481719 14409 net.cpp:86] Creating Layer conv3
I0803 11:16:30.481727 14409 net.cpp:408] conv3 <- norm2
I0803 11:16:30.481750 14409 net.cpp:382] conv3 -> conv3
I0803 11:16:30.533288 14409 net.cpp:124] Setting up conv3
I0803 11:16:30.533342 14409 net.cpp:131] Top shape: 50 384 13 13 (3244800)
I0803 11:16:30.533350 14409 net.cpp:139] Memory required for data: 280006000
I0803 11:16:30.533380 14409 layer_factory.hpp:77] Creating layer relu3
I0803 11:16:30.533399 14409 net.cpp:86] Creating Layer relu3
I0803 11:16:30.533411 14409 net.cpp:408] relu3 <- conv3
I0803 11:16:30.533426 14409 net.cpp:369] relu3 -> conv3 (in-place)
I0803 11:16:30.534402 14409 net.cpp:124] Setting up relu3
I0803 11:16:30.534423 14409 net.cpp:131] Top shape: 50 384 13 13 (3244800)
I0803 11:16:30.534430 14409 net.cpp:139] Memory required for data: 292985200
I0803 11:16:30.534436 14409 layer_factory.hpp:77] Creating layer conv4
I0803 11:16:30.534462 14409 net.cpp:86] Creating Layer conv4
I0803 11:16:30.534471 14409 net.cpp:408] conv4 <- conv3
I0803 11:16:30.534494 14409 net.cpp:382] conv4 -> conv4
I0803 11:16:30.574965 14409 net.cpp:124] Setting up conv4
I0803 11:16:30.575017 14409 net.cpp:131] Top shape: 50 384 13 13 (3244800)
I0803 11:16:30.575024 14409 net.cpp:139] Memory required for data: 305964400
I0803 11:16:30.575042 14409 layer_factory.hpp:77] Creating layer relu4
I0803 11:16:30.575059 14409 net.cpp:86] Creating Layer relu4
I0803 11:16:30.575067 14409 net.cpp:408] relu4 <- conv4
I0803 11:16:30.575080 14409 net.cpp:369] relu4 -> conv4 (in-place)
I0803 11:16:30.575351 14409 net.cpp:124] Setting up relu4
I0803 11:16:30.575366 14409 net.cpp:131] Top shape: 50 384 13 13 (3244800)
I0803 11:16:30.575371 14409 net.cpp:139] Memory required for data: 318943600
I0803 11:16:30.575377 14409 layer_factory.hpp:77] Creating layer conv5
I0803 11:16:30.575397 14409 net.cpp:86] Creating Layer conv5
I0803 11:16:30.575403 14409 net.cpp:408] conv5 <- conv4
I0803 11:16:30.575415 14409 net.cpp:382] conv5 -> conv5
I0803 11:16:30.597615 14409 net.cpp:124] Setting up conv5
I0803 11:16:30.597662 14409 net.cpp:131] Top shape: 50 256 13 13 (2163200)
I0803 11:16:30.597669 14409 net.cpp:139] Memory required for data: 327596400
I0803 11:16:30.597695 14409 layer_factory.hpp:77] Creating layer relu5
I0803 11:16:30.597714 14409 net.cpp:86] Creating Layer relu5
I0803 11:16:30.597723 14409 net.cpp:408] relu5 <- conv5
I0803 11:16:30.597734 14409 net.cpp:369] relu5 -> conv5 (in-place)
I0803 11:16:30.597965 14409 net.cpp:124] Setting up relu5
I0803 11:16:30.597978 14409 net.cpp:131] Top shape: 50 256 13 13 (2163200)
I0803 11:16:30.597985 14409 net.cpp:139] Memory required for data: 336249200
I0803 11:16:30.597990 14409 layer_factory.hpp:77] Creating layer pool5
I0803 11:16:30.598009 14409 net.cpp:86] Creating Layer pool5
I0803 11:16:30.598016 14409 net.cpp:408] pool5 <- conv5
I0803 11:16:30.598024 14409 net.cpp:382] pool5 -> pool5
I0803 11:16:30.598099 14409 net.cpp:124] Setting up pool5
I0803 11:16:30.598112 14409 net.cpp:131] Top shape: 50 256 6 6 (460800)
I0803 11:16:30.598119 14409 net.cpp:139] Memory required for data: 338092400
I0803 11:16:30.598124 14409 layer_factory.hpp:77] Creating layer fc6
I0803 11:16:30.598140 14409 net.cpp:86] Creating Layer fc6
I0803 11:16:30.598147 14409 net.cpp:408] fc6 <- pool5
I0803 11:16:30.598155 14409 net.cpp:382] fc6 -> fc6
I0803 11:16:32.031217 14409 net.cpp:124] Setting up fc6
I0803 11:16:32.031291 14409 net.cpp:131] Top shape: 50 4096 (204800)
I0803 11:16:32.031298 14409 net.cpp:139] Memory required for data: 338911600
I0803 11:16:32.031317 14409 layer_factory.hpp:77] Creating layer relu6
I0803 11:16:32.031348 14409 net.cpp:86] Creating Layer relu6
I0803 11:16:32.031358 14409 net.cpp:408] relu6 <- fc6
I0803 11:16:32.031373 14409 net.cpp:369] relu6 -> fc6 (in-place)
I0803 11:16:32.032410 14409 net.cpp:124] Setting up relu6
I0803 11:16:32.032425 14409 net.cpp:131] Top shape: 50 4096 (204800)
I0803 11:16:32.032430 14409 net.cpp:139] Memory required for data: 339730800
I0803 11:16:32.032449 14409 layer_factory.hpp:77] Creating layer drop6
I0803 11:16:32.032460 14409 net.cpp:86] Creating Layer drop6
I0803 11:16:32.032465 14409 net.cpp:408] drop6 <- fc6
I0803 11:16:32.032475 14409 net.cpp:369] drop6 -> fc6 (in-place)
I0803 11:16:32.032519 14409 net.cpp:124] Setting up drop6
I0803 11:16:32.032531 14409 net.cpp:131] Top shape: 50 4096 (204800)
I0803 11:16:32.032537 14409 net.cpp:139] Memory required for data: 340550000
I0803 11:16:32.032542 14409 layer_factory.hpp:77] Creating layer fc7
I0803 11:16:32.032564 14409 net.cpp:86] Creating Layer fc7
I0803 11:16:32.032570 14409 net.cpp:408] fc7 <- fc6
I0803 11:16:32.032582 14409 net.cpp:382] fc7 -> fc7
I0803 11:16:32.661793 14409 net.cpp:124] Setting up fc7
I0803 11:16:32.661869 14409 net.cpp:131] Top shape: 50 4096 (204800)
I0803 11:16:32.661875 14409 net.cpp:139] Memory required for data: 341369200
I0803 11:16:32.661895 14409 layer_factory.hpp:77] Creating layer relu7
I0803 11:16:32.661914 14409 net.cpp:86] Creating Layer relu7
I0803 11:16:32.661924 14409 net.cpp:408] relu7 <- fc7
I0803 11:16:32.661938 14409 net.cpp:369] relu7 -> fc7 (in-place)
I0803 11:16:32.662313 14409 net.cpp:124] Setting up relu7
I0803 11:16:32.662328 14409 net.cpp:131] Top shape: 50 4096 (204800)
I0803 11:16:32.662333 14409 net.cpp:139] Memory required for data: 342188400
I0803 11:16:32.662338 14409 layer_factory.hpp:77] Creating layer drop7
I0803 11:16:32.662348 14409 net.cpp:86] Creating Layer drop7
I0803 11:16:32.662353 14409 net.cpp:408] drop7 <- fc7
I0803 11:16:32.662372 14409 net.cpp:369] drop7 -> fc7 (in-place)
I0803 11:16:32.662432 14409 net.cpp:124] Setting up drop7
I0803 11:16:32.662446 14409 net.cpp:131] Top shape: 50 4096 (204800)
I0803 11:16:32.662451 14409 net.cpp:139] Memory required for data: 343007600
I0803 11:16:32.662456 14409 layer_factory.hpp:77] Creating layer fc8
I0803 11:16:32.662472 14409 net.cpp:86] Creating Layer fc8
I0803 11:16:32.662484 14409 net.cpp:408] fc8 <- fc7
I0803 11:16:32.662493 14409 net.cpp:382] fc8 -> fc8
I0803 11:16:32.662997 14409 net.cpp:124] Setting up fc8
I0803 11:16:32.663025 14409 net.cpp:131] Top shape: 50 2 (100)
I0803 11:16:32.663031 14409 net.cpp:139] Memory required for data: 343008000
I0803 11:16:32.663040 14409 layer_factory.hpp:77] Creating layer fc8_fc8_0_split
I0803 11:16:32.663050 14409 net.cpp:86] Creating Layer fc8_fc8_0_split
I0803 11:16:32.663055 14409 net.cpp:408] fc8_fc8_0_split <- fc8
I0803 11:16:32.663081 14409 net.cpp:382] fc8_fc8_0_split -> fc8_fc8_0_split_0
I0803 11:16:32.663092 14409 net.cpp:382] fc8_fc8_0_split -> fc8_fc8_0_split_1
I0803 11:16:32.663148 14409 net.cpp:124] Setting up fc8_fc8_0_split
I0803 11:16:32.663161 14409 net.cpp:131] Top shape: 50 2 (100)
I0803 11:16:32.663167 14409 net.cpp:131] Top shape: 50 2 (100)
I0803 11:16:32.663172 14409 net.cpp:139] Memory required for data: 343008800
I0803 11:16:32.663178 14409 layer_factory.hpp:77] Creating layer accuracy
I0803 11:16:32.663205 14409 net.cpp:86] Creating Layer accuracy
I0803 11:16:32.663213 14409 net.cpp:408] accuracy <- fc8_fc8_0_split_0
I0803 11:16:32.663219 14409 net.cpp:408] accuracy <- label_data_1_split_0
I0803 11:16:32.663229 14409 net.cpp:382] accuracy -> accuracy
…
