…
I0717 12:12:44.434590 21464 net.cpp:296] The NetState phase (0) differed from the phase (1) specified by a rule in layer data
I0717 12:12:44.434619 21464 net.cpp:296] The NetState phase (0) differed from the phase (1) specified by a rule in layer accuracy
I0717 12:12:44.434821 21464 net.cpp:53] Initializing net from parameters: 
name: "CaffeNet"
state {
  phase: TRAIN
}
layer {
  name: "data"
  type: "Data"
  top: "data"
  top: "label"
  include {
    phase: TRAIN
  }
  transform_param {
    mirror: true
    crop_size: 227
    mean_value: 104
    mean_value: 117
    mean_value: 123
  }
  data_param {
    source: "train.LMDB"
    batch_size: 256
    backend: LMDB
  }
}
layer {
  name: "conv1"
  type: "Convolution"
  bottom: "data"
  top: "conv1"
  param {
    lr_mult: 1
    decay_mult: 1
  }
  param {
    lr_mult: 2
    decay_mult: 0
  }
  convolution_param {
    num_output: 96
    kernel_size: 11
    stride: 4
    weight_filler {
      type: "gaussian"
      std: 0.01
    }
    bias_filler {
      type: "constant"
      value: 0
    }
  }
}
layer {
  name: "relu1"
  type: "ReLU"
  bottom: "conv1"
  top: "conv1"
}
layer {
  name: "pool1"
  type: "Pooling"
  bottom: "conv1"
  top: "pool1"
  pooling_param {
    pool: MAX
    kernel_size: 3
    stride: 2
  }
}
layer {
  name: "norm1"
  type: "LRN"
  bottom: "pool1"
  top: "norm1"
  lrn_param {
    local_size: 5
    alpha: 0.0001
    beta: 0.75
  }
}
layer {
  name: "conv2"
  type: "Convolution"
  bottom: "norm1"
  top: "conv2"
  param {
    lr_mult: 1
    decay_mult: 1
  }
  param {
    lr_mult: 2
    decay_mult: 0
  }
  convolution_param {
    num_output: 256
    pad: 2
    kernel_size: 5
    group: 2
    weight_filler {
      type: "gaussian"
      std: 0.01
    }
    bias_filler {
      type: "constant"
      value: 1
    }
  }
}
layer {
  name: "relu2"
  type: "ReLU"
  bottom: "conv2"
  top: "conv2"
}
layer {
  name: "pool2"
  type: "Pooling"
  bottom: "conv2"
  top: "pool2"
  pooling_param {
    pool: MAX
    kernel_size: 3
    stride: 2
  }
}
layer {
  name: "norm2"
  type: "LRN"
  bottom: "pool2"
  top: "norm2"
  lrn_param {
    local_size: 5
    alpha: 0.0001
    beta: 0.75
  }
}
layer {
  name: "conv3"
  type: "Convolution"
  bottom: "norm2"
  top: "conv3"
  param {
    lr_mult: 1
    decay_mult: 1
  }
  param {
    lr_mult: 2
    decay_mult: 0
  }
  convolution_param {
    num_output: 384
    pad: 1
    kernel_size: 3
    weight_filler {
      type: "gaussian"
      std: 0.01
    }
    bias_filler {
      type: "constant"
      value: 0
    }
  }
}
layer {
  name: "relu3"
  type: "ReLU"
  bottom: "conv3"
  top: "conv3"
}
layer {
  name: "conv4"
  type: "Convolution"
  bottom: "conv3"
  top: "conv4"
  param {
    lr_mult: 1
    decay_mult: 1
  }
  param {
    lr_mult: 2
    decay_mult: 0
  }
  convolution_param {
    num_output: 384
    pad: 1
    kernel_size: 3
    group: 2
    weight_filler {
      type: "gaussian"
      std: 0.01
    }
    bias_filler {
      type: "constant"
      value: 1
    }
  }
}
layer {
  name: "relu4"
  type: "ReLU"
  bottom: "conv4"
  top: "conv4"
}
layer {
  name: "conv5"
  type: "Convolution"
  bottom: "conv4"
  top: "conv5"
  param {
    lr_mult: 1
    decay_mult: 1
  }
  param {
    lr_mult: 2
    decay_mult: 0
  }
  convolution_param {
    num_output: 256
    pad: 1
    kernel_size: 3
    group: 2
    weight_filler {
      type: "gaussian"
      std: 0.01
    }
    bias_filler {
      type: "constant"
      value: 1
    }
  }
}
layer {
  name: "relu5"
  type: "ReLU"
  bottom: "conv5"
  top: "conv5"
}
layer {
  name: "pool5"
  type: "Pooling"
  bottom: "conv5"
  top: "pool5"
  pooling_param {
    pool: MAX
    kernel_size: 3
    stride: 2
  }
}
layer {
  name: "fc6"
  type: "InnerProduct"
  bottom: "pool5"
  top: "fc6"
  param {
    lr_mult: 1
    decay_mult: 1
  }
  param {
    lr_mult: 2
    decay_mult: 0
  }
  inner_product_param {
    num_output: 4096
    weight_filler {
      type: "gaussian"
      std: 0.005
    }
    bias_filler {
      type: "constant"
      value: 1
    }
  }
}
layer {
  name: "relu6"
  type: "ReLU"
  bottom: "fc6"
  top: "fc6"
}
layer {
  name: "drop6"
  type: "Dropout"
  bottom: "fc6"
  top: "fc6"
  dropout_param {
    dropout_ratio: 0.5
  }
}
layer {
  name: "fc7"
  type: "InnerProduct"
  bottom: "fc6"
  top: "fc7"
  param {
    lr_mult: 1
    decay_mult: 1
  }
  param {
    lr_mult: 2
    decay_mult: 0
  }
  inner_product_param {
    num_output: 4096
    weight_filler {
      type: "gaussian"
      std: 0.005
    }
    bias_filler {
      type: "constant"
      value: 1
    }
  }
}
layer {
  name: "relu7"
  type: "ReLU"
  bottom: "fc7"
  top: "fc7"
}
layer {
  name: "drop7"
  type: "Dropout"
  bottom: "fc7"
  top: "fc7"
  dropout_param {
    dropout_ratio: 0.5
  }
}
layer {
  name: "fc8"
  type: "InnerProduct"
  bottom: "fc7"
  top: "fc8"
  param {
    lr_mult: 1
    decay_mult: 1
  }
  param {
    lr_mult: 2
    decay_mult: 0
  }
  inner_product_param {
    num_output: 2
    weight_filler {
      type: "gaussian"
      std: 0.01
    }
    bias_filler {
      type: "constant"
      value: 0
    }
  }
}
layer {
  name: "loss"
  type: "SoftmaxWithLoss"
  bottom: "fc8"
  bottom: "label"
  top: "loss"
}
I0717 12:12:44.434917 21464 layer_factory.hpp:77] Creating layer data
I0717 12:12:44.436895 21464 db_lmdb.cpp:35] Opened lmdb train.LMDB
I0717 12:12:44.437075 21464 net.cpp:86] Creating Layer data
I0717 12:12:44.437090 21464 net.cpp:382] data -> data
I0717 12:12:44.437111 21464 net.cpp:382] data -> label
I0717 12:12:44.438493 21464 data_layer.cpp:45] output data size: 256,3,227,227
I0717 12:12:44.841681 21464 net.cpp:124] Setting up data
I0717 12:12:44.841739 21464 net.cpp:131] Top shape: 256 3 227 227 (39574272)
I0717 12:12:44.841748 21464 net.cpp:131] Top shape: 256 (256)
I0717 12:12:44.841753 21464 net.cpp:139] Memory required for data: 158298112
I0717 12:12:44.841763 21464 layer_factory.hpp:77] Creating layer conv1
I0717 12:12:44.841804 21464 net.cpp:86] Creating Layer conv1
I0717 12:12:44.841811 21464 net.cpp:408] conv1 <- data
I0717 12:12:44.841826 21464 net.cpp:382] conv1 -> conv1
I0717 12:12:45.083683 21464 net.cpp:124] Setting up conv1
I0717 12:12:45.083742 21464 net.cpp:131] Top shape: 256 96 55 55 (74342400)
I0717 12:12:45.083748 21464 net.cpp:139] Memory required for data: 455667712
I0717 12:12:45.083771 21464 layer_factory.hpp:77] Creating layer relu1
I0717 12:12:45.083803 21464 net.cpp:86] Creating Layer relu1
I0717 12:12:45.083811 21464 net.cpp:408] relu1 <- conv1
I0717 12:12:45.083822 21464 net.cpp:369] relu1 -> conv1 (in-place)
I0717 12:12:45.084591 21464 net.cpp:124] Setting up relu1
I0717 12:12:45.084607 21464 net.cpp:131] Top shape: 256 96 55 55 (74342400)
I0717 12:12:45.084612 21464 net.cpp:139] Memory required for data: 753037312
I0717 12:12:45.084630 21464 layer_factory.hpp:77] Creating layer pool1
I0717 12:12:45.084642 21464 net.cpp:86] Creating Layer pool1
I0717 12:12:45.084646 21464 net.cpp:408] pool1 <- conv1
I0717 12:12:45.084655 21464 net.cpp:382] pool1 -> pool1
I0717 12:12:45.084728 21464 net.cpp:124] Setting up pool1
I0717 12:12:45.084740 21464 net.cpp:131] Top shape: 256 96 27 27 (17915904)
I0717 12:12:45.084746 21464 net.cpp:139] Memory required for data: 824700928
I0717 12:12:45.084750 21464 layer_factory.hpp:77] Creating layer norm1
I0717 12:12:45.084765 21464 net.cpp:86] Creating Layer norm1
I0717 12:12:45.084771 21464 net.cpp:408] norm1 <- pool1
I0717 12:12:45.084779 21464 net.cpp:382] norm1 -> norm1
I0717 12:12:45.085024 21464 net.cpp:124] Setting up norm1
I0717 12:12:45.085041 21464 net.cpp:131] Top shape: 256 96 27 27 (17915904)
I0717 12:12:45.085047 21464 net.cpp:139] Memory required for data: 896364544
I0717 12:12:45.085052 21464 layer_factory.hpp:77] Creating layer conv2
I0717 12:12:45.085074 21464 net.cpp:86] Creating Layer conv2
I0717 12:12:45.085081 21464 net.cpp:408] conv2 <- norm1
I0717 12:12:45.085089 21464 net.cpp:382] conv2 -> conv2
I0717 12:12:45.121083 21464 net.cpp:124] Setting up conv2
I0717 12:12:45.121109 21464 net.cpp:131] Top shape: 256 256 27 27 (47775744)
I0717 12:12:45.121119 21464 net.cpp:139] Memory required for data: 1087467520
I0717 12:12:45.121134 21464 layer_factory.hpp:77] Creating layer relu2
I0717 12:12:45.121145 21464 net.cpp:86] Creating Layer relu2
I0717 12:12:45.121152 21464 net.cpp:408] relu2 <- conv2
I0717 12:12:45.121160 21464 net.cpp:369] relu2 -> conv2 (in-place)
I0717 12:12:45.121382 21464 net.cpp:124] Setting up relu2
I0717 12:12:45.121397 21464 net.cpp:131] Top shape: 256 256 27 27 (47775744)
I0717 12:12:45.121403 21464 net.cpp:139] Memory required for data: 1278570496
I0717 12:12:45.121408 21464 layer_factory.hpp:77] Creating layer pool2
I0717 12:12:45.121418 21464 net.cpp:86] Creating Layer pool2
I0717 12:12:45.121424 21464 net.cpp:408] pool2 <- conv2
I0717 12:12:45.121438 21464 net.cpp:382] pool2 -> pool2
I0717 12:12:45.121491 21464 net.cpp:124] Setting up pool2
I0717 12:12:45.121503 21464 net.cpp:131] Top shape: 256 256 13 13 (11075584)
I0717 12:12:45.121510 21464 net.cpp:139] Memory required for data: 1322872832
I0717 12:12:45.121515 21464 layer_factory.hpp:77] Creating layer norm2
I0717 12:12:45.121529 21464 net.cpp:86] Creating Layer norm2
I0717 12:12:45.121536 21464 net.cpp:408] norm2 <- pool2
I0717 12:12:45.121546 21464 net.cpp:382] norm2 -> norm2
I0717 12:12:45.122325 21464 net.cpp:124] Setting up norm2
I0717 12:12:45.122342 21464 net.cpp:131] Top shape: 256 256 13 13 (11075584)
I0717 12:12:45.122349 21464 net.cpp:139] Memory required for data: 1367175168
I0717 12:12:45.122354 21464 layer_factory.hpp:77] Creating layer conv3
I0717 12:12:45.122371 21464 net.cpp:86] Creating Layer conv3
I0717 12:12:45.122378 21464 net.cpp:408] conv3 <- norm2
I0717 12:12:45.122387 21464 net.cpp:382] conv3 -> conv3
I0717 12:12:45.158907 21464 net.cpp:124] Setting up conv3
I0717 12:12:45.158928 21464 net.cpp:131] Top shape: 256 384 13 13 (16613376)
I0717 12:12:45.158936 21464 net.cpp:139] Memory required for data: 1433628672
I0717 12:12:45.158951 21464 layer_factory.hpp:77] Creating layer relu3
I0717 12:12:45.158962 21464 net.cpp:86] Creating Layer relu3
I0717 12:12:45.158968 21464 net.cpp:408] relu3 <- conv3
I0717 12:12:45.158975 21464 net.cpp:369] relu3 -> conv3 (in-place)
I0717 12:12:45.159188 21464 net.cpp:124] Setting up relu3
I0717 12:12:45.159207 21464 net.cpp:131] Top shape: 256 384 13 13 (16613376)
I0717 12:12:45.159214 21464 net.cpp:139] Memory required for data: 1500082176
I0717 12:12:45.159219 21464 layer_factory.hpp:77] Creating layer conv4
I0717 12:12:45.159235 21464 net.cpp:86] Creating Layer conv4
I0717 12:12:45.159242 21464 net.cpp:408] conv4 <- conv3
I0717 12:12:45.159250 21464 net.cpp:382] conv4 -> conv4
I0717 12:12:45.188812 21464 net.cpp:124] Setting up conv4
I0717 12:12:45.188832 21464 net.cpp:131] Top shape: 256 384 13 13 (16613376)
I0717 12:12:45.188839 21464 net.cpp:139] Memory required for data: 1566535680
I0717 12:12:45.188850 21464 layer_factory.hpp:77] Creating layer relu4
I0717 12:12:45.188860 21464 net.cpp:86] Creating Layer relu4
I0717 12:12:45.188868 21464 net.cpp:408] relu4 <- conv4
I0717 12:12:45.188877 21464 net.cpp:369] relu4 -> conv4 (in-place)
I0717 12:12:45.189097 21464 net.cpp:124] Setting up relu4
I0717 12:12:45.189112 21464 net.cpp:131] Top shape: 256 384 13 13 (16613376)
I0717 12:12:45.189118 21464 net.cpp:139] Memory required for data: 1632989184
I0717 12:12:45.189123 21464 layer_factory.hpp:77] Creating layer conv5
I0717 12:12:45.189137 21464 net.cpp:86] Creating Layer conv5
I0717 12:12:45.189146 21464 net.cpp:408] conv5 <- conv4
I0717 12:12:45.189155 21464 net.cpp:382] conv5 -> conv5
I0717 12:12:45.210198 21464 net.cpp:124] Setting up conv5
I0717 12:12:45.210216 21464 net.cpp:131] Top shape: 256 256 13 13 (11075584)
I0717 12:12:45.210237 21464 net.cpp:139] Memory required for data: 1677291520
I0717 12:12:45.210252 21464 layer_factory.hpp:77] Creating layer relu5
I0717 12:12:45.210264 21464 net.cpp:86] Creating Layer relu5
I0717 12:12:45.210271 21464 net.cpp:408] relu5 <- conv5
I0717 12:12:45.210278 21464 net.cpp:369] relu5 -> conv5 (in-place)
I0717 12:12:45.210495 21464 net.cpp:124] Setting up relu5
I0717 12:12:45.210511 21464 net.cpp:131] Top shape: 256 256 13 13 (11075584)
I0717 12:12:45.210517 21464 net.cpp:139] Memory required for data: 1721593856
I0717 12:12:45.210523 21464 layer_factory.hpp:77] Creating layer pool5
I0717 12:12:45.210536 21464 net.cpp:86] Creating Layer pool5
I0717 12:12:45.210542 21464 net.cpp:408] pool5 <- conv5
I0717 12:12:45.210549 21464 net.cpp:382] pool5 -> pool5
I0717 12:12:45.210609 21464 net.cpp:124] Setting up pool5
I0717 12:12:45.210621 21464 net.cpp:131] Top shape: 256 256 6 6 (2359296)
I0717 12:12:45.210628 21464 net.cpp:139] Memory required for data: 1731031040
I0717 12:12:45.210633 21464 layer_factory.hpp:77] Creating layer fc6
I0717 12:12:45.210647 21464 net.cpp:86] Creating Layer fc6
I0717 12:12:45.210654 21464 net.cpp:408] fc6 <- pool5
I0717 12:12:45.210661 21464 net.cpp:382] fc6 -> fc6
I0717 12:12:46.589015 21464 net.cpp:124] Setting up fc6
I0717 12:12:46.589079 21464 net.cpp:131] Top shape: 256 4096 (1048576)
I0717 12:12:46.589085 21464 net.cpp:139] Memory required for data: 1735225344
I0717 12:12:46.589107 21464 layer_factory.hpp:77] Creating layer relu6
I0717 12:12:46.589143 21464 net.cpp:86] Creating Layer relu6
I0717 12:12:46.589154 21464 net.cpp:408] relu6 <- fc6
I0717 12:12:46.589166 21464 net.cpp:369] relu6 -> fc6 (in-place)
I0717 12:12:46.590286 21464 net.cpp:124] Setting up relu6
I0717 12:12:46.590302 21464 net.cpp:131] Top shape: 256 4096 (1048576)
I0717 12:12:46.590306 21464 net.cpp:139] Memory required for data: 1739419648
I0717 12:12:46.590324 21464 layer_factory.hpp:77] Creating layer drop6
I0717 12:12:46.590342 21464 net.cpp:86] Creating Layer drop6
I0717 12:12:46.590348 21464 net.cpp:408] drop6 <- fc6
I0717 12:12:46.590356 21464 net.cpp:369] drop6 -> fc6 (in-place)
I0717 12:12:46.590401 21464 net.cpp:124] Setting up drop6
I0717 12:12:46.590414 21464 net.cpp:131] Top shape: 256 4096 (1048576)
I0717 12:12:46.590420 21464 net.cpp:139] Memory required for data: 1743613952
I0717 12:12:46.590423 21464 layer_factory.hpp:77] Creating layer fc7
I0717 12:12:46.590440 21464 net.cpp:86] Creating Layer fc7
I0717 12:12:46.590446 21464 net.cpp:408] fc7 <- fc6
I0717 12:12:46.590454 21464 net.cpp:382] fc7 -> fc7
I0717 12:12:47.203568 21464 net.cpp:124] Setting up fc7
I0717 12:12:47.203625 21464 net.cpp:131] Top shape: 256 4096 (1048576)
I0717 12:12:47.203631 21464 net.cpp:139] Memory required for data: 1747808256
I0717 12:12:47.203646 21464 layer_factory.hpp:77] Creating layer relu7
I0717 12:12:47.203663 21464 net.cpp:86] Creating Layer relu7
I0717 12:12:47.203682 21464 net.cpp:408] relu7 <- fc7
I0717 12:12:47.203693 21464 net.cpp:369] relu7 -> fc7 (in-place)
I0717 12:12:47.204648 21464 net.cpp:124] Setting up relu7
I0717 12:12:47.204663 21464 net.cpp:131] Top shape: 256 4096 (1048576)
I0717 12:12:47.204668 21464 net.cpp:139] Memory required for data: 1752002560
I0717 12:12:47.204685 21464 layer_factory.hpp:77] Creating layer drop7
I0717 12:12:47.204704 21464 net.cpp:86] Creating Layer drop7
I0717 12:12:47.204708 21464 net.cpp:408] drop7 <- fc7
I0717 12:12:47.204715 21464 net.cpp:369] drop7 -> fc7 (in-place)
I0717 12:12:47.204762 21464 net.cpp:124] Setting up drop7
I0717 12:12:47.204773 21464 net.cpp:131] Top shape: 256 4096 (1048576)
I0717 12:12:47.204779 21464 net.cpp:139] Memory required for data: 1756196864
I0717 12:12:47.204784 21464 layer_factory.hpp:77] Creating layer fc8
I0717 12:12:47.204799 21464 net.cpp:86] Creating Layer fc8
I0717 12:12:47.204805 21464 net.cpp:408] fc8 <- fc7
I0717 12:12:47.204815 21464 net.cpp:382] fc8 -> fc8
I0717 12:12:47.205899 21464 net.cpp:124] Setting up fc8
I0717 12:12:47.205929 21464 net.cpp:131] Top shape: 256 2 (512)
I0717 12:12:47.205934 21464 net.cpp:139] Memory required for data: 1756198912
I0717 12:12:47.205942 21464 layer_factory.hpp:77] Creating layer loss
I0717 12:12:47.205953 21464 net.cpp:86] Creating Layer loss
I0717 12:12:47.205958 21464 net.cpp:408] loss <- fc8
I0717 12:12:47.205965 21464 net.cpp:408] loss <- label
I0717 12:12:47.205974 21464 net.cpp:382] loss -> loss
I0717 12:12:47.205988 21464 layer_factory.hpp:77] Creating layer loss
…
I0717 12:12:47.207866 21464 solver.cpp:173] Creating test net (#0) specified by net file: caffenet/train_val.prototxt
I0717 12:12:47.207926 21464 net.cpp:296] The NetState phase (1) differed from the phase (0) specified by a rule in layer data
I0717 12:12:47.208166 21464 net.cpp:53] Initializing net from parameters: 
name: "CaffeNet"
state {
  phase: TEST
}
layer {
  name: "data"
  type: "Data"
  top: "data"
  top: "label"
  include {
    phase: TEST
  }
  transform_param {
    mirror: true
    crop_size: 227
    mean_value: 104
    mean_value: 117
    mean_value: 123
  }
  data_param {
    source: "val.LMDB"
    batch_size: 50
    backend: LMDB
  }
}
layer {
  name: "conv1"
  type: "Convolution"
  bottom: "data"
  top: "conv1"
  param {
    lr_mult: 1
    decay_mult: 1
  }
  param {
    lr_mult: 2
    decay_mult: 0
  }
  convolution_param {
    num_output: 96
    kernel_size: 11
    stride: 4
    weight_filler {
      type: "gaussian"
      std: 0.01
    }
    bias_filler {
      type: "constant"
      value: 0
    }
  }
}
layer {
  name: "relu1"
  type: "ReLU"
  bottom: "conv1"
  top: "conv1"
}
layer {
  name: "pool1"
  type: "Pooling"
  bottom: "conv1"
  top: "pool1"
  pooling_param {
    pool: MAX
    kernel_size: 3
    stride: 2
  }
}
layer {
  name: "norm1"
  type: "LRN"
  bottom: "pool1"
  top: "norm1"
  lrn_param {
    local_size: 5
    alpha: 0.0001
    beta: 0.75
  }
}
layer {
  name: "conv2"
  type: "Convolution"
  bottom: "norm1"
  top: "conv2"
  param {
    lr_mult: 1
    decay_mult: 1
  }
  param {
    lr_mult: 2
    decay_mult: 0
  }
  convolution_param {
    num_output: 256
    pad: 2
    kernel_size: 5
    group: 2
    weight_filler {
      type: "gaussian"
      std: 0.01
    }
    bias_filler {
      type: "constant"
      value: 1
    }
  }
}
layer {
  name: "relu2"
  type: "ReLU"
  bottom: "conv2"
  top: "conv2"
}
layer {
  name: "pool2"
  type: "Pooling"
  bottom: "conv2"
  top: "pool2"
  pooling_param {
    pool: MAX
    kernel_size: 3
    stride: 2
  }
}
layer {
  name: "norm2"
  type: "LRN"
  bottom: "pool2"
  top: "norm2"
  lrn_param {
    local_size: 5
    alpha: 0.0001
    beta: 0.75
  }
}
layer {
  name: "conv3"
  type: "Convolution"
  bottom: "norm2"
  top: "conv3"
  param {
    lr_mult: 1
    decay_mult: 1
  }
  param {
    lr_mult: 2
    decay_mult: 0
  }
  convolution_param {
    num_output: 384
    pad: 1
    kernel_size: 3
    weight_filler {
      type: "gaussian"
      std: 0.01
    }
    bias_filler {
      type: "constant"
      value: 0
    }
  }
}
layer {
  name: "relu3"
  type: "ReLU"
  bottom: "conv3"
  top: "conv3"
}
layer {
  name: "conv4"
  type: "Convolution"
  bottom: "conv3"
  top: "conv4"
  param {
    lr_mult: 1
    decay_mult: 1
  }
  param {
    lr_mult: 2
    decay_mult: 0
  }
  convolution_param {
    num_output: 384
    pad: 1
    kernel_size: 3
    group: 2
    weight_filler {
      type: "gaussian"
      std: 0.01
    }
    bias_filler {
      type: "constant"
      value: 1
    }
  }
}
layer {
  name: "relu4"
  type: "ReLU"
  bottom: "conv4"
  top: "conv4"
}
layer {
  name: "conv5"
  type: "Convolution"
  bottom: "conv4"
  top: "conv5"
  param {
    lr_mult: 1
    decay_mult: 1
  }
  param {
    lr_mult: 2
    decay_mult: 0
  }
  convolution_param {
    num_output: 256
    pad: 1
    kernel_size: 3
    group: 2
    weight_filler {
      type: "gaussian"
      std: 0.01
    }
    bias_filler {
      type: "constant"
      value: 1
    }
  }
}
layer {
  name: "relu5"
  type: "ReLU"
  bottom: "conv5"
  top: "conv5"
}
layer {
  name: "pool5"
  type: "Pooling"
  bottom: "conv5"
  top: "pool5"
  pooling_param {
    pool: MAX
    kernel_size: 3
    stride: 2
  }
}
layer {
  name: "fc6"
  type: "InnerProduct"
  bottom: "pool5"
  top: "fc6"
  param {
    lr_mult: 1
    decay_mult: 1
  }
  param {
    lr_mult: 2
    decay_mult: 0
  }
  inner_product_param {
    num_output: 4096
    weight_filler {
      type: "gaussian"
      std: 0.005
    }
    bias_filler {
      type: "constant"
      value: 1
    }
  }
}
layer {
  name: "relu6"
  type: "ReLU"
  bottom: "fc6"
  top: "fc6"
}
layer {
  name: "drop6"
  type: "Dropout"
  bottom: "fc6"
  top: "fc6"
  dropout_param {
    dropout_ratio: 0.5
  }
}
layer {
  name: "fc7"
  type: "InnerProduct"
  bottom: "fc6"
  top: "fc7"
  param {
    lr_mult: 1
    decay_mult: 1
  }
  param {
    lr_mult: 2
    decay_mult: 0
  }
  inner_product_param {
    num_output: 4096
    weight_filler {
      type: "gaussian"
      std: 0.005
    }
    bias_filler {
      type: "constant"
      value: 1
    }
  }
}
layer {
  name: "relu7"
  type: "ReLU"
  bottom: "fc7"
  top: "fc7"
}
layer {
  name: "drop7"
  type: "Dropout"
  bottom: "fc7"
  top: "fc7"
  dropout_param {
    dropout_ratio: 0.5
  }
}
layer {
  name: "fc8"
  type: "InnerProduct"
  bottom: "fc7"
  top: "fc8"
  param {
    lr_mult: 1
    decay_mult: 1
  }
  param {
    lr_mult: 2
    decay_mult: 0
  }
  inner_product_param {
    num_output: 2
    weight_filler {
      type: "gaussian"
      std: 0.01
    }
    bias_filler {
      type: "constant"
      value: 0
    }
  }
}
layer {
  name: "accuracy"
  type: "Accuracy"
  bottom: "fc8"
  bottom: "label"
  top: "accuracy"
  include {
    phase: TEST
  }
}
layer {
  name: "loss"
  type: "SoftmaxWithLoss"
  bottom: "fc8"
  bottom: "label"
  top: "loss"
}
I0717 12:12:47.208300 21464 layer_factory.hpp:77] Creating layer data
I0717 12:12:47.210059 21464 db_lmdb.cpp:35] Opened lmdb val.LMDB
I0717 12:12:47.210206 21464 net.cpp:86] Creating Layer data
I0717 12:12:47.210222 21464 net.cpp:382] data -> data
I0717 12:12:47.210235 21464 net.cpp:382] data -> label
I0717 12:12:47.210616 21464 data_layer.cpp:45] output data size: 50,3,227,227
I0717 12:12:47.294406 21464 net.cpp:124] Setting up data
I0717 12:12:47.294466 21464 net.cpp:131] Top shape: 50 3 227 227 (7729350)
I0717 12:12:47.294473 21464 net.cpp:131] Top shape: 50 (50)
I0717 12:12:47.294487 21464 net.cpp:139] Memory required for data: 30917600
I0717 12:12:47.294497 21464 layer_factory.hpp:77] Creating layer label_data_1_split
I0717 12:12:47.294528 21464 net.cpp:86] Creating Layer label_data_1_split
I0717 12:12:47.294535 21464 net.cpp:408] label_data_1_split <- label
I0717 12:12:47.294546 21464 net.cpp:382] label_data_1_split -> label_data_1_split_0
I0717 12:12:47.294561 21464 net.cpp:382] label_data_1_split -> label_data_1_split_1
I0717 12:12:47.294630 21464 net.cpp:124] Setting up label_data_1_split
I0717 12:12:47.294642 21464 net.cpp:131] Top shape: 50 (50)
I0717 12:12:47.294651 21464 net.cpp:131] Top shape: 50 (50)
I0717 12:12:47.294656 21464 net.cpp:139] Memory required for data: 30918000
I0717 12:12:47.294661 21464 layer_factory.hpp:77] Creating layer conv1
I0717 12:12:47.294682 21464 net.cpp:86] Creating Layer conv1
I0717 12:12:47.294688 21464 net.cpp:408] conv1 <- data
I0717 12:12:47.294697 21464 net.cpp:382] conv1 -> conv1
I0717 12:12:47.304440 21464 net.cpp:124] Setting up conv1
I0717 12:12:47.304512 21464 net.cpp:131] Top shape: 50 96 55 55 (14520000)
I0717 12:12:47.304524 21464 net.cpp:139] Memory required for data: 88998000
I0717 12:12:47.304577 21464 layer_factory.hpp:77] Creating layer relu1
I0717 12:12:47.304603 21464 net.cpp:86] Creating Layer relu1
I0717 12:12:47.304618 21464 net.cpp:408] relu1 <- conv1
I0717 12:12:47.304633 21464 net.cpp:369] relu1 -> conv1 (in-place)
I0717 12:12:47.305043 21464 net.cpp:124] Setting up relu1
I0717 12:12:47.305075 21464 net.cpp:131] Top shape: 50 96 55 55 (14520000)
I0717 12:12:47.305085 21464 net.cpp:139] Memory required for data: 147078000
I0717 12:12:47.305095 21464 layer_factory.hpp:77] Creating layer pool1
I0717 12:12:47.305135 21464 net.cpp:86] Creating Layer pool1
I0717 12:12:47.305143 21464 net.cpp:408] pool1 <- conv1
I0717 12:12:47.305158 21464 net.cpp:382] pool1 -> pool1
I0717 12:12:47.305268 21464 net.cpp:124] Setting up pool1
I0717 12:12:47.305289 21464 net.cpp:131] Top shape: 50 96 27 27 (3499200)
I0717 12:12:47.305308 21464 net.cpp:139] Memory required for data: 161074800
I0717 12:12:47.305317 21464 layer_factory.hpp:77] Creating layer norm1
I0717 12:12:47.305337 21464 net.cpp:86] Creating Layer norm1
I0717 12:12:47.305348 21464 net.cpp:408] norm1 <- pool1
I0717 12:12:47.305361 21464 net.cpp:382] norm1 -> norm1
I0717 12:12:47.306790 21464 net.cpp:124] Setting up norm1
I0717 12:12:47.306823 21464 net.cpp:131] Top shape: 50 96 27 27 (3499200)
I0717 12:12:47.306833 21464 net.cpp:139] Memory required for data: 175071600
I0717 12:12:47.306843 21464 layer_factory.hpp:77] Creating layer conv2
I0717 12:12:47.306869 21464 net.cpp:86] Creating Layer conv2
I0717 12:12:47.306879 21464 net.cpp:408] conv2 <- norm1
I0717 12:12:47.306901 21464 net.cpp:382] conv2 -> conv2
I0717 12:12:47.333263 21464 net.cpp:124] Setting up conv2
I0717 12:12:47.333322 21464 net.cpp:131] Top shape: 50 256 27 27 (9331200)
I0717 12:12:47.333331 21464 net.cpp:139] Memory required for data: 212396400
I0717 12:12:47.333366 21464 layer_factory.hpp:77] Creating layer relu2
I0717 12:12:47.333387 21464 net.cpp:86] Creating Layer relu2
I0717 12:12:47.333400 21464 net.cpp:408] relu2 <- conv2
I0717 12:12:47.333413 21464 net.cpp:369] relu2 -> conv2 (in-place)
I0717 12:12:47.333767 21464 net.cpp:124] Setting up relu2
I0717 12:12:47.333789 21464 net.cpp:131] Top shape: 50 256 27 27 (9331200)
I0717 12:12:47.333797 21464 net.cpp:139] Memory required for data: 249721200
I0717 12:12:47.333804 21464 layer_factory.hpp:77] Creating layer pool2
I0717 12:12:47.333822 21464 net.cpp:86] Creating Layer pool2
I0717 12:12:47.333830 21464 net.cpp:408] pool2 <- conv2
I0717 12:12:47.333845 21464 net.cpp:382] pool2 -> pool2
I0717 12:12:47.333941 21464 net.cpp:124] Setting up pool2
I0717 12:12:47.333961 21464 net.cpp:131] Top shape: 50 256 13 13 (2163200)
I0717 12:12:47.333969 21464 net.cpp:139] Memory required for data: 258374000
I0717 12:12:47.333976 21464 layer_factory.hpp:77] Creating layer norm2
I0717 12:12:47.333997 21464 net.cpp:86] Creating Layer norm2
I0717 12:12:47.334005 21464 net.cpp:408] norm2 <- pool2
I0717 12:12:47.334019 21464 net.cpp:382] norm2 -> norm2
I0717 12:12:47.335254 21464 net.cpp:124] Setting up norm2
I0717 12:12:47.335281 21464 net.cpp:131] Top shape: 50 256 13 13 (2163200)
I0717 12:12:47.335291 21464 net.cpp:139] Memory required for data: 267026800
I0717 12:12:47.335301 21464 layer_factory.hpp:77] Creating layer conv3
I0717 12:12:47.335330 21464 net.cpp:86] Creating Layer conv3
I0717 12:12:47.335341 21464 net.cpp:408] conv3 <- norm2
I0717 12:12:47.335355 21464 net.cpp:382] conv3 -> conv3
I0717 12:12:47.383990 21464 net.cpp:124] Setting up conv3
I0717 12:12:47.384044 21464 net.cpp:131] Top shape: 50 384 13 13 (3244800)
I0717 12:12:47.384052 21464 net.cpp:139] Memory required for data: 280006000
I0717 12:12:47.384078 21464 layer_factory.hpp:77] Creating layer relu3
I0717 12:12:47.384099 21464 net.cpp:86] Creating Layer relu3
I0717 12:12:47.384109 21464 net.cpp:408] relu3 <- conv3
I0717 12:12:47.384126 21464 net.cpp:369] relu3 -> conv3 (in-place)
I0717 12:12:47.385057 21464 net.cpp:124] Setting up relu3
I0717 12:12:47.385077 21464 net.cpp:131] Top shape: 50 384 13 13 (3244800)
I0717 12:12:47.385084 21464 net.cpp:139] Memory required for data: 292985200
I0717 12:12:47.385092 21464 layer_factory.hpp:77] Creating layer conv4
I0717 12:12:47.385115 21464 net.cpp:86] Creating Layer conv4
I0717 12:12:47.385123 21464 net.cpp:408] conv4 <- conv3
I0717 12:12:47.385138 21464 net.cpp:382] conv4 -> conv4
I0717 12:12:47.424530 21464 net.cpp:124] Setting up conv4
I0717 12:12:47.424583 21464 net.cpp:131] Top shape: 50 384 13 13 (3244800)
I0717 12:12:47.424590 21464 net.cpp:139] Memory required for data: 305964400
I0717 12:12:47.424607 21464 layer_factory.hpp:77] Creating layer relu4
I0717 12:12:47.424628 21464 net.cpp:86] Creating Layer relu4
I0717 12:12:47.424638 21464 net.cpp:408] relu4 <- conv4
I0717 12:12:47.424652 21464 net.cpp:369] relu4 -> conv4 (in-place)
I0717 12:12:47.424916 21464 net.cpp:124] Setting up relu4
I0717 12:12:47.424932 21464 net.cpp:131] Top shape: 50 384 13 13 (3244800)
I0717 12:12:47.424938 21464 net.cpp:139] Memory required for data: 318943600
I0717 12:12:47.424947 21464 layer_factory.hpp:77] Creating layer conv5
I0717 12:12:47.424967 21464 net.cpp:86] Creating Layer conv5
I0717 12:12:47.424973 21464 net.cpp:408] conv5 <- conv4
I0717 12:12:47.424986 21464 net.cpp:382] conv5 -> conv5
I0717 12:12:47.446801 21464 net.cpp:124] Setting up conv5
I0717 12:12:47.446852 21464 net.cpp:131] Top shape: 50 256 13 13 (2163200)
I0717 12:12:47.446859 21464 net.cpp:139] Memory required for data: 327596400
I0717 12:12:47.446887 21464 layer_factory.hpp:77] Creating layer relu5
I0717 12:12:47.446905 21464 net.cpp:86] Creating Layer relu5
I0717 12:12:47.446914 21464 net.cpp:408] relu5 <- conv5
I0717 12:12:47.446928 21464 net.cpp:369] relu5 -> conv5 (in-place)
I0717 12:12:47.447151 21464 net.cpp:124] Setting up relu5
I0717 12:12:47.447165 21464 net.cpp:131] Top shape: 50 256 13 13 (2163200)
I0717 12:12:47.447171 21464 net.cpp:139] Memory required for data: 336249200
I0717 12:12:47.447177 21464 layer_factory.hpp:77] Creating layer pool5
I0717 12:12:47.447196 21464 net.cpp:86] Creating Layer pool5
I0717 12:12:47.447202 21464 net.cpp:408] pool5 <- conv5
I0717 12:12:47.447211 21464 net.cpp:382] pool5 -> pool5
I0717 12:12:47.447283 21464 net.cpp:124] Setting up pool5
I0717 12:12:47.447296 21464 net.cpp:131] Top shape: 50 256 6 6 (460800)
I0717 12:12:47.447302 21464 net.cpp:139] Memory required for data: 338092400
I0717 12:12:47.447307 21464 layer_factory.hpp:77] Creating layer fc6
I0717 12:12:47.447321 21464 net.cpp:86] Creating Layer fc6
I0717 12:12:47.447329 21464 net.cpp:408] fc6 <- pool5
I0717 12:12:47.447337 21464 net.cpp:382] fc6 -> fc6
I0717 12:12:48.915105 21464 net.cpp:124] Setting up fc6
I0717 12:12:48.915164 21464 net.cpp:131] Top shape: 50 4096 (204800)
I0717 12:12:48.915169 21464 net.cpp:139] Memory required for data: 338911600
I0717 12:12:48.915187 21464 layer_factory.hpp:77] Creating layer relu6
I0717 12:12:48.915202 21464 net.cpp:86] Creating Layer relu6
I0717 12:12:48.915210 21464 net.cpp:408] relu6 <- fc6
I0717 12:12:48.915218 21464 net.cpp:369] relu6 -> fc6 (in-place)
I0717 12:12:48.916262 21464 net.cpp:124] Setting up relu6
I0717 12:12:48.916278 21464 net.cpp:131] Top shape: 50 4096 (204800)
I0717 12:12:48.916283 21464 net.cpp:139] Memory required for data: 339730800
I0717 12:12:48.916288 21464 layer_factory.hpp:77] Creating layer drop6
I0717 12:12:48.916301 21464 net.cpp:86] Creating Layer drop6
I0717 12:12:48.916306 21464 net.cpp:408] drop6 <- fc6
I0717 12:12:48.916311 21464 net.cpp:369] drop6 -> fc6 (in-place)
I0717 12:12:48.916352 21464 net.cpp:124] Setting up drop6
I0717 12:12:48.916363 21464 net.cpp:131] Top shape: 50 4096 (204800)
I0717 12:12:48.916368 21464 net.cpp:139] Memory required for data: 340550000
I0717 12:12:48.916373 21464 layer_factory.hpp:77] Creating layer fc7
I0717 12:12:48.916383 21464 net.cpp:86] Creating Layer fc7
I0717 12:12:48.916388 21464 net.cpp:408] fc7 <- fc6
I0717 12:12:48.916398 21464 net.cpp:382] fc7 -> fc7
I0717 12:12:49.524893 21464 net.cpp:124] Setting up fc7
I0717 12:12:49.524937 21464 net.cpp:131] Top shape: 50 4096 (204800)
I0717 12:12:49.524942 21464 net.cpp:139] Memory required for data: 341369200
I0717 12:12:49.524956 21464 layer_factory.hpp:77] Creating layer relu7
I0717 12:12:49.524971 21464 net.cpp:86] Creating Layer relu7
I0717 12:12:49.524981 21464 net.cpp:408] relu7 <- fc7
I0717 12:12:49.524991 21464 net.cpp:369] relu7 -> fc7 (in-place)
I0717 12:12:49.525318 21464 net.cpp:124] Setting up relu7
I0717 12:12:49.525332 21464 net.cpp:131] Top shape: 50 4096 (204800)
I0717 12:12:49.525337 21464 net.cpp:139] Memory required for data: 342188400
I0717 12:12:49.525342 21464 layer_factory.hpp:77] Creating layer drop7
I0717 12:12:49.525354 21464 net.cpp:86] Creating Layer drop7
I0717 12:12:49.525359 21464 net.cpp:408] drop7 <- fc7
I0717 12:12:49.525368 21464 net.cpp:369] drop7 -> fc7 (in-place)
I0717 12:12:49.525408 21464 net.cpp:124] Setting up drop7
I0717 12:12:49.525419 21464 net.cpp:131] Top shape: 50 4096 (204800)
I0717 12:12:49.525425 21464 net.cpp:139] Memory required for data: 343007600
I0717 12:12:49.525429 21464 layer_factory.hpp:77] Creating layer fc8
I0717 12:12:49.525444 21464 net.cpp:86] Creating Layer fc8
I0717 12:12:49.525451 21464 net.cpp:408] fc8 <- fc7
I0717 12:12:49.525460 21464 net.cpp:382] fc8 -> fc8
I0717 12:12:49.525929 21464 net.cpp:124] Setting up fc8
I0717 12:12:49.525943 21464 net.cpp:131] Top shape: 50 2 (100)
I0717 12:12:49.525948 21464 net.cpp:139] Memory required for data: 343008000
I0717 12:12:49.525956 21464 layer_factory.hpp:77] Creating layer fc8_fc8_0_split
I0717 12:12:49.525964 21464 net.cpp:86] Creating Layer fc8_fc8_0_split
I0717 12:12:49.525969 21464 net.cpp:408] fc8_fc8_0_split <- fc8
I0717 12:12:49.525975 21464 net.cpp:382] fc8_fc8_0_split -> fc8_fc8_0_split_0
I0717 12:12:49.525984 21464 net.cpp:382] fc8_fc8_0_split -> fc8_fc8_0_split_1
I0717 12:12:49.526048 21464 net.cpp:124] Setting up fc8_fc8_0_split
I0717 12:12:49.526059 21464 net.cpp:131] Top shape: 50 2 (100)
I0717 12:12:49.526067 21464 net.cpp:131] Top shape: 50 2 (100)
I0717 12:12:49.526072 21464 net.cpp:139] Memory required for data: 343008800
I0717 12:12:49.526075 21464 layer_factory.hpp:77] Creating layer accuracy
I0717 12:12:49.526093 21464 net.cpp:86] Creating Layer accuracy
I0717 12:12:49.526100 21464 net.cpp:408] accuracy <- fc8_fc8_0_split_0
I0717 12:12:49.526106 21464 net.cpp:408] accuracy <- label_data_1_split_0
I0717 12:12:49.526113 21464 net.cpp:382] accuracy -> accuracy
…
