…
I0803 16:20:31.295730 17673 net.cpp:296] The NetState phase (0) differed from the phase (1) specified by a rule in layer data
I0803 16:20:31.295760 17673 net.cpp:296] The NetState phase (0) differed from the phase (1) specified by a rule in layer accuracy
I0803 16:20:31.295977 17673 net.cpp:53] Initializing net from parameters: 
name: "CaffeNet"
state {
  phase: TRAIN
}
layer {
  name: "data"
  type: "Data"
  top: "data"
  top: "label"
  include {
    phase: TRAIN
  }
  transform_param {
    mirror: true
    crop_size: 227
    mean_value: 104
    mean_value: 117
    mean_value: 123
  }
  data_param {
    source: "train.LMDB"
    batch_size: 256
    backend: LMDB
  }
}
layer {
  name: "conv1"
  type: "Convolution"
  bottom: "data"
  top: "conv1"
  param {
    lr_mult: 0.1
    decay_mult: 1
  }
  param {
    lr_mult: 0.2
    decay_mult: 0
  }
  convolution_param {
    num_output: 96
    kernel_size: 11
    stride: 4
    weight_filler {
      type: "gaussian"
      std: 0.01
    }
    bias_filler {
      type: "constant"
      value: 0
    }
  }
}
layer {
  name: "relu1"
  type: "ReLU"
  bottom: "conv1"
  top: "conv1"
}
layer {
  name: "pool1"
  type: "Pooling"
  bottom: "conv1"
  top: "pool1"
  pooling_param {
    pool: MAX
    kernel_size: 3
    stride: 2
  }
}
layer {
  name: "norm1"
  type: "LRN"
  bottom: "pool1"
  top: "norm1"
  lrn_param {
    local_size: 5
    alpha: 0.0001
    beta: 0.75
  }
}
layer {
  name: "conv2"
  type: "Convolution"
  bottom: "norm1"
  top: "conv2"
  param {
    lr_mult: 0.1
    decay_mult: 1
  }
  param {
    lr_mult: 0.2
    decay_mult: 0
  }
  convolution_param {
    num_output: 256
    pad: 2
    kernel_size: 5
    group: 2
    weight_filler {
      type: "gaussian"
      std: 0.01
    }
    bias_filler {
      type: "constant"
      value: 1
    }
  }
}
layer {
  name: "relu2"
  type: "ReLU"
  bottom: "conv2"
  top: "conv2"
}
layer {
  name: "pool2"
  type: "Pooling"
  bottom: "conv2"
  top: "pool2"
  pooling_param {
    pool: MAX
    kernel_size: 3
    stride: 2
  }
}
layer {
  name: "norm2"
  type: "LRN"
  bottom: "pool2"
  top: "norm2"
  lrn_param {
    local_size: 5
    alpha: 0.0001
    beta: 0.75
  }
}
layer {
  name: "conv3"
  type: "Convolution"
  bottom: "norm2"
  top: "conv3"
  param {
    lr_mult: 0.1
    decay_mult: 1
  }
  param {
    lr_mult: 0.2
    decay_mult: 0
  }
  convolution_param {
    num_output: 384
    pad: 1
    kernel_size: 3
    weight_filler {
      type: "gaussian"
      std: 0.01
    }
    bias_filler {
      type: "constant"
      value: 0
    }
  }
}
layer {
  name: "relu3"
  type: "ReLU"
  bottom: "conv3"
  top: "conv3"
}
layer {
  name: "conv4"
  type: "Convolution"
  bottom: "conv3"
  top: "conv4"
  param {
    lr_mult: 0.1
    decay_mult: 1
  }
  param {
    lr_mult: 0.2
    decay_mult: 0
  }
  convolution_param {
    num_output: 384
    pad: 1
    kernel_size: 3
    group: 2
    weight_filler {
      type: "gaussian"
      std: 0.01
    }
    bias_filler {
      type: "constant"
      value: 1
    }
  }
}
layer {
  name: "relu4"
  type: "ReLU"
  bottom: "conv4"
  top: "conv4"
}
layer {
  name: "conv5"
  type: "Convolution"
  bottom: "conv4"
  top: "conv5"
  param {
    lr_mult: 0.1
    decay_mult: 1
  }
  param {
    lr_mult: 0.2
    decay_mult: 0
  }
  convolution_param {
    num_output: 256
    pad: 1
    kernel_size: 3
    group: 2
    weight_filler {
      type: "gaussian"
      std: 0.01
    }
    bias_filler {
      type: "constant"
      value: 1
    }
  }
}
layer {
  name: "relu5"
  type: "ReLU"
  bottom: "conv5"
  top: "conv5"
}
layer {
  name: "pool5"
  type: "Pooling"
  bottom: "conv5"
  top: "pool5"
  pooling_param {
    pool: MAX
    kernel_size: 3
    stride: 2
  }
}
layer {
  name: "fc6"
  type: "InnerProduct"
  bottom: "pool5"
  top: "fc6"
  param {
    lr_mult: 0.1
    decay_mult: 1
  }
  param {
    lr_mult: 0.2
    decay_mult: 0
  }
  inner_product_param {
    num_output: 4096
    weight_filler {
      type: "gaussian"
      std: 0.005
    }
    bias_filler {
      type: "constant"
      value: 1
    }
  }
}
layer {
  name: "relu6"
  type: "ReLU"
  bottom: "fc6"
  top: "fc6"
}
layer {
  name: "drop6"
  type: "Dropout"
  bottom: "fc6"
  top: "fc6"
  dropout_param {
    dropout_ratio: 0.5
  }
}
layer {
  name: "fc7"
  type: "InnerProduct"
  bottom: "fc6"
  top: "fc7"
  param {
    lr_mult: 0.1
    decay_mult: 1
  }
  param {
    lr_mult: 0.2
    decay_mult: 0
  }
  inner_product_param {
    num_output: 4096
    weight_filler {
      type: "gaussian"
      std: 0.005
    }
    bias_filler {
      type: "constant"
      value: 1
    }
  }
}
layer {
  name: "relu7"
  type: "ReLU"
  bottom: "fc7"
  top: "fc7"
}
layer {
  name: "drop7"
  type: "Dropout"
  bottom: "fc7"
  top: "fc7"
  dropout_param {
    dropout_ratio: 0.5
  }
}
layer {
  name: "fc8"
  type: "InnerProduct"
  bottom: "fc7"
  top: "fc8"
  param {
    lr_mult: 1
    decay_mult: 1
  }
  param {
    lr_mult: 2
    decay_mult: 0
  }
  inner_product_param {
    num_output: 2
    weight_filler {
      type: "gaussian"
      std: 0.01
    }
    bias_filler {
      type: "constant"
      value: 0
    }
  }
}
layer {
  name: "loss"
  type: "SoftmaxWithLoss"
  bottom: "fc8"
  bottom: "label"
  top: "loss"
}
I0803 16:20:31.296078 17673 layer_factory.hpp:77] Creating layer data
I0803 16:20:31.297273 17673 db_lmdb.cpp:35] Opened lmdb train.LMDB
I0803 16:20:31.297513 17673 net.cpp:86] Creating Layer data
I0803 16:20:31.297531 17673 net.cpp:382] data -> data
I0803 16:20:31.297550 17673 net.cpp:382] data -> label
I0803 16:20:31.299019 17673 data_layer.cpp:45] output data size: 256,3,227,227
I0803 16:20:31.709961 17673 net.cpp:124] Setting up data
I0803 16:20:31.710016 17673 net.cpp:131] Top shape: 256 3 227 227 (39574272)
I0803 16:20:31.710024 17673 net.cpp:131] Top shape: 256 (256)
I0803 16:20:31.710029 17673 net.cpp:139] Memory required for data: 158298112
I0803 16:20:31.710038 17673 layer_factory.hpp:77] Creating layer conv1
I0803 16:20:31.710077 17673 net.cpp:86] Creating Layer conv1
I0803 16:20:31.710083 17673 net.cpp:408] conv1 <- data
I0803 16:20:31.710096 17673 net.cpp:382] conv1 -> conv1
I0803 16:20:32.038357 17673 net.cpp:124] Setting up conv1
I0803 16:20:32.038398 17673 net.cpp:131] Top shape: 256 96 55 55 (74342400)
I0803 16:20:32.038404 17673 net.cpp:139] Memory required for data: 455667712
I0803 16:20:32.038429 17673 layer_factory.hpp:77] Creating layer relu1
I0803 16:20:32.038461 17673 net.cpp:86] Creating Layer relu1
I0803 16:20:32.038473 17673 net.cpp:408] relu1 <- conv1
I0803 16:20:32.038491 17673 net.cpp:369] relu1 -> conv1 (in-place)
I0803 16:20:32.039387 17673 net.cpp:124] Setting up relu1
I0803 16:20:32.039405 17673 net.cpp:131] Top shape: 256 96 55 55 (74342400)
I0803 16:20:32.039424 17673 net.cpp:139] Memory required for data: 753037312
I0803 16:20:32.039429 17673 layer_factory.hpp:77] Creating layer pool1
I0803 16:20:32.039438 17673 net.cpp:86] Creating Layer pool1
I0803 16:20:32.039443 17673 net.cpp:408] pool1 <- conv1
I0803 16:20:32.039453 17673 net.cpp:382] pool1 -> pool1
I0803 16:20:32.039526 17673 net.cpp:124] Setting up pool1
I0803 16:20:32.039538 17673 net.cpp:131] Top shape: 256 96 27 27 (17915904)
I0803 16:20:32.039544 17673 net.cpp:139] Memory required for data: 824700928
I0803 16:20:32.039549 17673 layer_factory.hpp:77] Creating layer norm1
I0803 16:20:32.039563 17673 net.cpp:86] Creating Layer norm1
I0803 16:20:32.039571 17673 net.cpp:408] norm1 <- pool1
I0803 16:20:32.039577 17673 net.cpp:382] norm1 -> norm1
I0803 16:20:32.039834 17673 net.cpp:124] Setting up norm1
I0803 16:20:32.039849 17673 net.cpp:131] Top shape: 256 96 27 27 (17915904)
I0803 16:20:32.039855 17673 net.cpp:139] Memory required for data: 896364544
I0803 16:20:32.039860 17673 layer_factory.hpp:77] Creating layer conv2
I0803 16:20:32.039878 17673 net.cpp:86] Creating Layer conv2
I0803 16:20:32.039885 17673 net.cpp:408] conv2 <- norm1
I0803 16:20:32.039907 17673 net.cpp:382] conv2 -> conv2
I0803 16:20:32.055994 17673 net.cpp:124] Setting up conv2
I0803 16:20:32.056025 17673 net.cpp:131] Top shape: 256 256 27 27 (47775744)
I0803 16:20:32.056031 17673 net.cpp:139] Memory required for data: 1087467520
I0803 16:20:32.056043 17673 layer_factory.hpp:77] Creating layer relu2
I0803 16:20:32.056056 17673 net.cpp:86] Creating Layer relu2
I0803 16:20:32.056064 17673 net.cpp:408] relu2 <- conv2
I0803 16:20:32.056073 17673 net.cpp:369] relu2 -> conv2 (in-place)
I0803 16:20:32.056298 17673 net.cpp:124] Setting up relu2
I0803 16:20:32.056313 17673 net.cpp:131] Top shape: 256 256 27 27 (47775744)
I0803 16:20:32.056319 17673 net.cpp:139] Memory required for data: 1278570496
I0803 16:20:32.056324 17673 layer_factory.hpp:77] Creating layer pool2
I0803 16:20:32.056336 17673 net.cpp:86] Creating Layer pool2
I0803 16:20:32.056344 17673 net.cpp:408] pool2 <- conv2
I0803 16:20:32.056352 17673 net.cpp:382] pool2 -> pool2
I0803 16:20:32.056404 17673 net.cpp:124] Setting up pool2
I0803 16:20:32.056416 17673 net.cpp:131] Top shape: 256 256 13 13 (11075584)
I0803 16:20:32.056421 17673 net.cpp:139] Memory required for data: 1322872832
I0803 16:20:32.056427 17673 layer_factory.hpp:77] Creating layer norm2
I0803 16:20:32.056438 17673 net.cpp:86] Creating Layer norm2
I0803 16:20:32.056444 17673 net.cpp:408] norm2 <- pool2
I0803 16:20:32.056452 17673 net.cpp:382] norm2 -> norm2
I0803 16:20:32.057265 17673 net.cpp:124] Setting up norm2
I0803 16:20:32.057281 17673 net.cpp:131] Top shape: 256 256 13 13 (11075584)
I0803 16:20:32.057288 17673 net.cpp:139] Memory required for data: 1367175168
I0803 16:20:32.057293 17673 layer_factory.hpp:77] Creating layer conv3
I0803 16:20:32.057312 17673 net.cpp:86] Creating Layer conv3
I0803 16:20:32.057320 17673 net.cpp:408] conv3 <- norm2
I0803 16:20:32.057329 17673 net.cpp:382] conv3 -> conv3
I0803 16:20:32.093739 17673 net.cpp:124] Setting up conv3
I0803 16:20:32.093760 17673 net.cpp:131] Top shape: 256 384 13 13 (16613376)
I0803 16:20:32.093767 17673 net.cpp:139] Memory required for data: 1433628672
I0803 16:20:32.093780 17673 layer_factory.hpp:77] Creating layer relu3
I0803 16:20:32.093792 17673 net.cpp:86] Creating Layer relu3
I0803 16:20:32.093799 17673 net.cpp:408] relu3 <- conv3
I0803 16:20:32.093807 17673 net.cpp:369] relu3 -> conv3 (in-place)
I0803 16:20:32.094025 17673 net.cpp:124] Setting up relu3
I0803 16:20:32.094039 17673 net.cpp:131] Top shape: 256 384 13 13 (16613376)
I0803 16:20:32.094046 17673 net.cpp:139] Memory required for data: 1500082176
I0803 16:20:32.094051 17673 layer_factory.hpp:77] Creating layer conv4
I0803 16:20:32.094069 17673 net.cpp:86] Creating Layer conv4
I0803 16:20:32.094075 17673 net.cpp:408] conv4 <- conv3
I0803 16:20:32.094084 17673 net.cpp:382] conv4 -> conv4
I0803 16:20:32.123713 17673 net.cpp:124] Setting up conv4
I0803 16:20:32.123733 17673 net.cpp:131] Top shape: 256 384 13 13 (16613376)
I0803 16:20:32.123739 17673 net.cpp:139] Memory required for data: 1566535680
I0803 16:20:32.123749 17673 layer_factory.hpp:77] Creating layer relu4
I0803 16:20:32.123759 17673 net.cpp:86] Creating Layer relu4
I0803 16:20:32.123766 17673 net.cpp:408] relu4 <- conv4
I0803 16:20:32.123776 17673 net.cpp:369] relu4 -> conv4 (in-place)
I0803 16:20:32.123991 17673 net.cpp:124] Setting up relu4
I0803 16:20:32.124006 17673 net.cpp:131] Top shape: 256 384 13 13 (16613376)
I0803 16:20:32.124011 17673 net.cpp:139] Memory required for data: 1632989184
I0803 16:20:32.124017 17673 layer_factory.hpp:77] Creating layer conv5
I0803 16:20:32.124032 17673 net.cpp:86] Creating Layer conv5
I0803 16:20:32.124039 17673 net.cpp:408] conv5 <- conv4
I0803 16:20:32.124050 17673 net.cpp:382] conv5 -> conv5
I0803 16:20:32.145704 17673 net.cpp:124] Setting up conv5
I0803 16:20:32.145722 17673 net.cpp:131] Top shape: 256 256 13 13 (11075584)
I0803 16:20:32.145730 17673 net.cpp:139] Memory required for data: 1677291520
I0803 16:20:32.145742 17673 layer_factory.hpp:77] Creating layer relu5
I0803 16:20:32.145756 17673 net.cpp:86] Creating Layer relu5
I0803 16:20:32.145762 17673 net.cpp:408] relu5 <- conv5
I0803 16:20:32.145769 17673 net.cpp:369] relu5 -> conv5 (in-place)
I0803 16:20:32.145992 17673 net.cpp:124] Setting up relu5
I0803 16:20:32.146006 17673 net.cpp:131] Top shape: 256 256 13 13 (11075584)
I0803 16:20:32.146013 17673 net.cpp:139] Memory required for data: 1721593856
I0803 16:20:32.146018 17673 layer_factory.hpp:77] Creating layer pool5
I0803 16:20:32.146031 17673 net.cpp:86] Creating Layer pool5
I0803 16:20:32.146039 17673 net.cpp:408] pool5 <- conv5
I0803 16:20:32.146045 17673 net.cpp:382] pool5 -> pool5
I0803 16:20:32.146103 17673 net.cpp:124] Setting up pool5
I0803 16:20:32.146114 17673 net.cpp:131] Top shape: 256 256 6 6 (2359296)
I0803 16:20:32.146121 17673 net.cpp:139] Memory required for data: 1731031040
I0803 16:20:32.146126 17673 layer_factory.hpp:77] Creating layer fc6
I0803 16:20:32.146139 17673 net.cpp:86] Creating Layer fc6
I0803 16:20:32.146147 17673 net.cpp:408] fc6 <- pool5
I0803 16:20:32.146153 17673 net.cpp:382] fc6 -> fc6
I0803 16:20:33.523910 17673 net.cpp:124] Setting up fc6
I0803 16:20:33.523973 17673 net.cpp:131] Top shape: 256 4096 (1048576)
I0803 16:20:33.523979 17673 net.cpp:139] Memory required for data: 1735225344
I0803 16:20:33.523998 17673 layer_factory.hpp:77] Creating layer relu6
I0803 16:20:33.524019 17673 net.cpp:86] Creating Layer relu6
I0803 16:20:33.524039 17673 net.cpp:408] relu6 <- fc6
I0803 16:20:33.524054 17673 net.cpp:369] relu6 -> fc6 (in-place)
I0803 16:20:33.525251 17673 net.cpp:124] Setting up relu6
I0803 16:20:33.525267 17673 net.cpp:131] Top shape: 256 4096 (1048576)
I0803 16:20:33.525272 17673 net.cpp:139] Memory required for data: 1739419648
I0803 16:20:33.525290 17673 layer_factory.hpp:77] Creating layer drop6
I0803 16:20:33.525307 17673 net.cpp:86] Creating Layer drop6
I0803 16:20:33.525312 17673 net.cpp:408] drop6 <- fc6
I0803 16:20:33.525321 17673 net.cpp:369] drop6 -> fc6 (in-place)
I0803 16:20:33.525372 17673 net.cpp:124] Setting up drop6
I0803 16:20:33.525382 17673 net.cpp:131] Top shape: 256 4096 (1048576)
I0803 16:20:33.525389 17673 net.cpp:139] Memory required for data: 1743613952
I0803 16:20:33.525394 17673 layer_factory.hpp:77] Creating layer fc7
I0803 16:20:33.525413 17673 net.cpp:86] Creating Layer fc7
I0803 16:20:33.525419 17673 net.cpp:408] fc7 <- fc6
I0803 16:20:33.525426 17673 net.cpp:382] fc7 -> fc7
I0803 16:20:34.161360 17673 net.cpp:124] Setting up fc7
I0803 16:20:34.161419 17673 net.cpp:131] Top shape: 256 4096 (1048576)
I0803 16:20:34.161425 17673 net.cpp:139] Memory required for data: 1747808256
I0803 16:20:34.161439 17673 layer_factory.hpp:77] Creating layer relu7
I0803 16:20:34.161458 17673 net.cpp:86] Creating Layer relu7
I0803 16:20:34.161464 17673 net.cpp:408] relu7 <- fc7
I0803 16:20:34.161474 17673 net.cpp:369] relu7 -> fc7 (in-place)
I0803 16:20:34.162469 17673 net.cpp:124] Setting up relu7
I0803 16:20:34.162493 17673 net.cpp:131] Top shape: 256 4096 (1048576)
I0803 16:20:34.162498 17673 net.cpp:139] Memory required for data: 1752002560
I0803 16:20:34.162504 17673 layer_factory.hpp:77] Creating layer drop7
I0803 16:20:34.162524 17673 net.cpp:86] Creating Layer drop7
I0803 16:20:34.162530 17673 net.cpp:408] drop7 <- fc7
I0803 16:20:34.162536 17673 net.cpp:369] drop7 -> fc7 (in-place)
I0803 16:20:34.162569 17673 net.cpp:124] Setting up drop7
I0803 16:20:34.162582 17673 net.cpp:131] Top shape: 256 4096 (1048576)
I0803 16:20:34.162588 17673 net.cpp:139] Memory required for data: 1756196864
I0803 16:20:34.162593 17673 layer_factory.hpp:77] Creating layer fc8
I0803 16:20:34.162603 17673 net.cpp:86] Creating Layer fc8
I0803 16:20:34.162609 17673 net.cpp:408] fc8 <- fc7
I0803 16:20:34.162619 17673 net.cpp:382] fc8 -> fc8
I0803 16:20:34.163743 17673 net.cpp:124] Setting up fc8
I0803 16:20:34.163759 17673 net.cpp:131] Top shape: 256 2 (512)
I0803 16:20:34.163764 17673 net.cpp:139] Memory required for data: 1756198912
I0803 16:20:34.163774 17673 layer_factory.hpp:77] Creating layer loss
I0803 16:20:34.163790 17673 net.cpp:86] Creating Layer loss
I0803 16:20:34.163795 17673 net.cpp:408] loss <- fc8
I0803 16:20:34.163801 17673 net.cpp:408] loss <- label
I0803 16:20:34.163808 17673 net.cpp:382] loss -> loss
I0803 16:20:34.163823 17673 layer_factory.hpp:77] Creating layer loss
…
I0803 16:20:34.165709 17673 solver.cpp:173] Creating test net (#0) specified by net file: caffenet/train_val_exp6.prototxt
I0803 16:20:34.165767 17673 net.cpp:296] The NetState phase (1) differed from the phase (0) specified by a rule in layer data
I0803 16:20:34.166012 17673 net.cpp:53] Initializing net from parameters: 
name: "CaffeNet"
state {
  phase: TEST
}
layer {
  name: "data"
  type: "Data"
  top: "data"
  top: "label"
  include {
    phase: TEST
  }
  transform_param {
    mirror: true
    crop_size: 227
    mean_value: 104
    mean_value: 117
    mean_value: 123
  }
  data_param {
    source: "val.LMDB"
    batch_size: 50
    backend: LMDB
  }
}
layer {
  name: "conv1"
  type: "Convolution"
  bottom: "data"
  top: "conv1"
  param {
    lr_mult: 0.1
    decay_mult: 1
  }
  param {
    lr_mult: 0.2
    decay_mult: 0
  }
  convolution_param {
    num_output: 96
    kernel_size: 11
    stride: 4
    weight_filler {
      type: "gaussian"
      std: 0.01
    }
    bias_filler {
      type: "constant"
      value: 0
    }
  }
}
layer {
  name: "relu1"
  type: "ReLU"
  bottom: "conv1"
  top: "conv1"
}
layer {
  name: "pool1"
  type: "Pooling"
  bottom: "conv1"
  top: "pool1"
  pooling_param {
    pool: MAX
    kernel_size: 3
    stride: 2
  }
}
layer {
  name: "norm1"
  type: "LRN"
  bottom: "pool1"
  top: "norm1"
  lrn_param {
    local_size: 5
    alpha: 0.0001
    beta: 0.75
  }
}
layer {
  name: "conv2"
  type: "Convolution"
  bottom: "norm1"
  top: "conv2"
  param {
    lr_mult: 0.1
    decay_mult: 1
  }
  param {
    lr_mult: 0.2
    decay_mult: 0
  }
  convolution_param {
    num_output: 256
    pad: 2
    kernel_size: 5
    group: 2
    weight_filler {
      type: "gaussian"
      std: 0.01
    }
    bias_filler {
      type: "constant"
      value: 1
    }
  }
}
layer {
  name: "relu2"
  type: "ReLU"
  bottom: "conv2"
  top: "conv2"
}
layer {
  name: "pool2"
  type: "Pooling"
  bottom: "conv2"
  top: "pool2"
  pooling_param {
    pool: MAX
    kernel_size: 3
    stride: 2
  }
}
layer {
  name: "norm2"
  type: "LRN"
  bottom: "pool2"
  top: "norm2"
  lrn_param {
    local_size: 5
    alpha: 0.0001
    beta: 0.75
  }
}
layer {
  name: "conv3"
  type: "Convolution"
  bottom: "norm2"
  top: "conv3"
  param {
    lr_mult: 0.1
    decay_mult: 1
  }
  param {
    lr_mult: 0.2
    decay_mult: 0
  }
  convolution_param {
    num_output: 384
    pad: 1
    kernel_size: 3
    weight_filler {
      type: "gaussian"
      std: 0.01
    }
    bias_filler {
      type: "constant"
      value: 0
    }
  }
}
layer {
  name: "relu3"
  type: "ReLU"
  bottom: "conv3"
  top: "conv3"
}
layer {
  name: "conv4"
  type: "Convolution"
  bottom: "conv3"
  top: "conv4"
  param {
    lr_mult: 0.1
    decay_mult: 1
  }
  param {
    lr_mult: 0.2
    decay_mult: 0
  }
  convolution_param {
    num_output: 384
    pad: 1
    kernel_size: 3
    group: 2
    weight_filler {
      type: "gaussian"
      std: 0.01
    }
    bias_filler {
      type: "constant"
      value: 1
    }
  }
}
layer {
  name: "relu4"
  type: "ReLU"
  bottom: "conv4"
  top: "conv4"
}
layer {
  name: "conv5"
  type: "Convolution"
  bottom: "conv4"
  top: "conv5"
  param {
    lr_mult: 0.1
    decay_mult: 1
  }
  param {
    lr_mult: 0.2
    decay_mult: 0
  }
  convolution_param {
    num_output: 256
    pad: 1
    kernel_size: 3
    group: 2
    weight_filler {
      type: "gaussian"
      std: 0.01
    }
    bias_filler {
      type: "constant"
      value: 1
    }
  }
}
layer {
  name: "relu5"
  type: "ReLU"
  bottom: "conv5"
  top: "conv5"
}
layer {
  name: "pool5"
  type: "Pooling"
  bottom: "conv5"
  top: "pool5"
  pooling_param {
    pool: MAX
    kernel_size: 3
    stride: 2
  }
}
layer {
  name: "fc6"
  type: "InnerProduct"
  bottom: "pool5"
  top: "fc6"
  param {
    lr_mult: 0.1
    decay_mult: 1
  }
  param {
    lr_mult: 0.2
    decay_mult: 0
  }
  inner_product_param {
    num_output: 4096
    weight_filler {
      type: "gaussian"
      std: 0.005
    }
    bias_filler {
      type: "constant"
      value: 1
    }
  }
}
layer {
  name: "relu6"
  type: "ReLU"
  bottom: "fc6"
  top: "fc6"
}
layer {
  name: "drop6"
  type: "Dropout"
  bottom: "fc6"
  top: "fc6"
  dropout_param {
    dropout_ratio: 0.5
  }
}
layer {
  name: "fc7"
  type: "InnerProduct"
  bottom: "fc6"
  top: "fc7"
  param {
    lr_mult: 0.1
    decay_mult: 1
  }
  param {
    lr_mult: 0.2
    decay_mult: 0
  }
  inner_product_param {
    num_output: 4096
    weight_filler {
      type: "gaussian"
      std: 0.005
    }
    bias_filler {
      type: "constant"
      value: 1
    }
  }
}
layer {
  name: "relu7"
  type: "ReLU"
  bottom: "fc7"
  top: "fc7"
}
layer {
  name: "drop7"
  type: "Dropout"
  bottom: "fc7"
  top: "fc7"
  dropout_param {
    dropout_ratio: 0.5
  }
}
layer {
  name: "fc8"
  type: "InnerProduct"
  bottom: "fc7"
  top: "fc8"
  param {
    lr_mult: 1
    decay_mult: 1
  }
  param {
    lr_mult: 2
    decay_mult: 0
  }
  inner_product_param {
    num_output: 2
    weight_filler {
      type: "gaussian"
      std: 0.01
    }
    bias_filler {
      type: "constant"
      value: 0
    }
  }
}
layer {
  name: "accuracy"
  type: "Accuracy"
  bottom: "fc8"
  bottom: "label"
  top: "accuracy"
  include {
    phase: TEST
  }
}
layer {
  name: "loss"
  type: "SoftmaxWithLoss"
  bottom: "fc8"
  bottom: "label"
  top: "loss"
}
I0803 16:20:34.166144 17673 layer_factory.hpp:77] Creating layer data
I0803 16:20:34.167348 17673 db_lmdb.cpp:35] Opened lmdb val.LMDB
I0803 16:20:34.167564 17673 net.cpp:86] Creating Layer data
I0803 16:20:34.167587 17673 net.cpp:382] data -> data
I0803 16:20:34.167603 17673 net.cpp:382] data -> label
I0803 16:20:34.168087 17673 data_layer.cpp:45] output data size: 50,3,227,227
I0803 16:20:34.294047 17673 net.cpp:124] Setting up data
I0803 16:20:34.294097 17673 net.cpp:131] Top shape: 50 3 227 227 (7729350)
I0803 16:20:34.294107 17673 net.cpp:131] Top shape: 50 (50)
I0803 16:20:34.294113 17673 net.cpp:139] Memory required for data: 30917600
I0803 16:20:34.294124 17673 layer_factory.hpp:77] Creating layer label_data_1_split
I0803 16:20:34.294143 17673 net.cpp:86] Creating Layer label_data_1_split
I0803 16:20:34.294152 17673 net.cpp:408] label_data_1_split <- label
I0803 16:20:34.294163 17673 net.cpp:382] label_data_1_split -> label_data_1_split_0
I0803 16:20:34.294181 17673 net.cpp:382] label_data_1_split -> label_data_1_split_1
I0803 16:20:34.294277 17673 net.cpp:124] Setting up label_data_1_split
I0803 16:20:34.294291 17673 net.cpp:131] Top shape: 50 (50)
I0803 16:20:34.294298 17673 net.cpp:131] Top shape: 50 (50)
I0803 16:20:34.294303 17673 net.cpp:139] Memory required for data: 30918000
I0803 16:20:34.294311 17673 layer_factory.hpp:77] Creating layer conv1
I0803 16:20:34.294330 17673 net.cpp:86] Creating Layer conv1
I0803 16:20:34.294337 17673 net.cpp:408] conv1 <- data
I0803 16:20:34.294347 17673 net.cpp:382] conv1 -> conv1
I0803 16:20:34.304268 17673 net.cpp:124] Setting up conv1
I0803 16:20:34.304339 17673 net.cpp:131] Top shape: 50 96 55 55 (14520000)
I0803 16:20:34.304352 17673 net.cpp:139] Memory required for data: 88998000
I0803 16:20:34.304390 17673 layer_factory.hpp:77] Creating layer relu1
I0803 16:20:34.304415 17673 net.cpp:86] Creating Layer relu1
I0803 16:20:34.304431 17673 net.cpp:408] relu1 <- conv1
I0803 16:20:34.304448 17673 net.cpp:369] relu1 -> conv1 (in-place)
I0803 16:20:34.304864 17673 net.cpp:124] Setting up relu1
I0803 16:20:34.304893 17673 net.cpp:131] Top shape: 50 96 55 55 (14520000)
I0803 16:20:34.304904 17673 net.cpp:139] Memory required for data: 147078000
I0803 16:20:34.304915 17673 layer_factory.hpp:77] Creating layer pool1
I0803 16:20:34.304939 17673 net.cpp:86] Creating Layer pool1
I0803 16:20:34.304949 17673 net.cpp:408] pool1 <- conv1
I0803 16:20:34.304965 17673 net.cpp:382] pool1 -> pool1
I0803 16:20:34.305095 17673 net.cpp:124] Setting up pool1
I0803 16:20:34.305119 17673 net.cpp:131] Top shape: 50 96 27 27 (3499200)
I0803 16:20:34.305130 17673 net.cpp:139] Memory required for data: 161074800
I0803 16:20:34.305140 17673 layer_factory.hpp:77] Creating layer norm1
I0803 16:20:34.305160 17673 net.cpp:86] Creating Layer norm1
I0803 16:20:34.305172 17673 net.cpp:408] norm1 <- pool1
I0803 16:20:34.305187 17673 net.cpp:382] norm1 -> norm1
I0803 16:20:34.306751 17673 net.cpp:124] Setting up norm1
I0803 16:20:34.306783 17673 net.cpp:131] Top shape: 50 96 27 27 (3499200)
I0803 16:20:34.306795 17673 net.cpp:139] Memory required for data: 175071600
I0803 16:20:34.306813 17673 layer_factory.hpp:77] Creating layer conv2
I0803 16:20:34.306843 17673 net.cpp:86] Creating Layer conv2
I0803 16:20:34.306856 17673 net.cpp:408] conv2 <- norm1
I0803 16:20:34.306874 17673 net.cpp:382] conv2 -> conv2
I0803 16:20:34.335857 17673 net.cpp:124] Setting up conv2
I0803 16:20:34.335917 17673 net.cpp:131] Top shape: 50 256 27 27 (9331200)
I0803 16:20:34.335927 17673 net.cpp:139] Memory required for data: 212396400
I0803 16:20:34.335959 17673 layer_factory.hpp:77] Creating layer relu2
I0803 16:20:34.335985 17673 net.cpp:86] Creating Layer relu2
I0803 16:20:34.335999 17673 net.cpp:408] relu2 <- conv2
I0803 16:20:34.336015 17673 net.cpp:369] relu2 -> conv2 (in-place)
I0803 16:20:34.336396 17673 net.cpp:124] Setting up relu2
I0803 16:20:34.336418 17673 net.cpp:131] Top shape: 50 256 27 27 (9331200)
I0803 16:20:34.336429 17673 net.cpp:139] Memory required for data: 249721200
I0803 16:20:34.336441 17673 layer_factory.hpp:77] Creating layer pool2
I0803 16:20:34.336467 17673 net.cpp:86] Creating Layer pool2
I0803 16:20:34.336477 17673 net.cpp:408] pool2 <- conv2
I0803 16:20:34.336494 17673 net.cpp:382] pool2 -> pool2
I0803 16:20:34.336592 17673 net.cpp:124] Setting up pool2
I0803 16:20:34.336616 17673 net.cpp:131] Top shape: 50 256 13 13 (2163200)
I0803 16:20:34.336625 17673 net.cpp:139] Memory required for data: 258374000
I0803 16:20:34.336633 17673 layer_factory.hpp:77] Creating layer norm2
I0803 16:20:34.336652 17673 net.cpp:86] Creating Layer norm2
I0803 16:20:34.336663 17673 net.cpp:408] norm2 <- pool2
I0803 16:20:34.336674 17673 net.cpp:382] norm2 -> norm2
I0803 16:20:34.337975 17673 net.cpp:124] Setting up norm2
I0803 16:20:34.338003 17673 net.cpp:131] Top shape: 50 256 13 13 (2163200)
I0803 16:20:34.338014 17673 net.cpp:139] Memory required for data: 267026800
I0803 16:20:34.338022 17673 layer_factory.hpp:77] Creating layer conv3
I0803 16:20:34.338057 17673 net.cpp:86] Creating Layer conv3
I0803 16:20:34.338068 17673 net.cpp:408] conv3 <- norm2
I0803 16:20:34.338083 17673 net.cpp:382] conv3 -> conv3
I0803 16:20:34.391119 17673 net.cpp:124] Setting up conv3
I0803 16:20:34.391176 17673 net.cpp:131] Top shape: 50 384 13 13 (3244800)
I0803 16:20:34.391183 17673 net.cpp:139] Memory required for data: 280006000
I0803 16:20:34.391211 17673 layer_factory.hpp:77] Creating layer relu3
I0803 16:20:34.391230 17673 net.cpp:86] Creating Layer relu3
I0803 16:20:34.391242 17673 net.cpp:408] relu3 <- conv3
I0803 16:20:34.391259 17673 net.cpp:369] relu3 -> conv3 (in-place)
I0803 16:20:34.392213 17673 net.cpp:124] Setting up relu3
I0803 16:20:34.392233 17673 net.cpp:131] Top shape: 50 384 13 13 (3244800)
I0803 16:20:34.392241 17673 net.cpp:139] Memory required for data: 292985200
I0803 16:20:34.392248 17673 layer_factory.hpp:77] Creating layer conv4
I0803 16:20:34.392273 17673 net.cpp:86] Creating Layer conv4
I0803 16:20:34.392282 17673 net.cpp:408] conv4 <- conv3
I0803 16:20:34.392292 17673 net.cpp:382] conv4 -> conv4
I0803 16:20:34.440440 17673 net.cpp:124] Setting up conv4
I0803 16:20:34.440475 17673 net.cpp:131] Top shape: 50 384 13 13 (3244800)
I0803 16:20:34.440485 17673 net.cpp:139] Memory required for data: 305964400
I0803 16:20:34.440502 17673 layer_factory.hpp:77] Creating layer relu4
I0803 16:20:34.440520 17673 net.cpp:86] Creating Layer relu4
I0803 16:20:34.440531 17673 net.cpp:408] relu4 <- conv4
I0803 16:20:34.440551 17673 net.cpp:369] relu4 -> conv4 (in-place)
I0803 16:20:34.440912 17673 net.cpp:124] Setting up relu4
I0803 16:20:34.440934 17673 net.cpp:131] Top shape: 50 384 13 13 (3244800)
I0803 16:20:34.440944 17673 net.cpp:139] Memory required for data: 318943600
I0803 16:20:34.440953 17673 layer_factory.hpp:77] Creating layer conv5
I0803 16:20:34.440979 17673 net.cpp:86] Creating Layer conv5
I0803 16:20:34.440990 17673 net.cpp:408] conv5 <- conv4
I0803 16:20:34.441005 17673 net.cpp:382] conv5 -> conv5
I0803 16:20:34.475548 17673 net.cpp:124] Setting up conv5
I0803 16:20:34.475581 17673 net.cpp:131] Top shape: 50 256 13 13 (2163200)
I0803 16:20:34.475589 17673 net.cpp:139] Memory required for data: 327596400
I0803 16:20:34.475608 17673 layer_factory.hpp:77] Creating layer relu5
I0803 16:20:34.475620 17673 net.cpp:86] Creating Layer relu5
I0803 16:20:34.475626 17673 net.cpp:408] relu5 <- conv5
I0803 16:20:34.475641 17673 net.cpp:369] relu5 -> conv5 (in-place)
I0803 16:20:34.475924 17673 net.cpp:124] Setting up relu5
I0803 16:20:34.475942 17673 net.cpp:131] Top shape: 50 256 13 13 (2163200)
I0803 16:20:34.475950 17673 net.cpp:139] Memory required for data: 336249200
I0803 16:20:34.475955 17673 layer_factory.hpp:77] Creating layer pool5
I0803 16:20:34.475970 17673 net.cpp:86] Creating Layer pool5
I0803 16:20:34.475976 17673 net.cpp:408] pool5 <- conv5
I0803 16:20:34.475989 17673 net.cpp:382] pool5 -> pool5
I0803 16:20:34.476070 17673 net.cpp:124] Setting up pool5
I0803 16:20:34.476085 17673 net.cpp:131] Top shape: 50 256 6 6 (460800)
I0803 16:20:34.476092 17673 net.cpp:139] Memory required for data: 338092400
I0803 16:20:34.476099 17673 layer_factory.hpp:77] Creating layer fc6
I0803 16:20:34.476115 17673 net.cpp:86] Creating Layer fc6
I0803 16:20:34.476125 17673 net.cpp:408] fc6 <- pool5
I0803 16:20:34.476136 17673 net.cpp:382] fc6 -> fc6
I0803 16:20:35.849942 17673 net.cpp:124] Setting up fc6
I0803 16:20:35.849999 17673 net.cpp:131] Top shape: 50 4096 (204800)
I0803 16:20:35.850005 17673 net.cpp:139] Memory required for data: 338911600
I0803 16:20:35.850020 17673 layer_factory.hpp:77] Creating layer relu6
I0803 16:20:35.850039 17673 net.cpp:86] Creating Layer relu6
I0803 16:20:35.850045 17673 net.cpp:408] relu6 <- fc6
I0803 16:20:35.850069 17673 net.cpp:369] relu6 -> fc6 (in-place)
I0803 16:20:35.851125 17673 net.cpp:124] Setting up relu6
I0803 16:20:35.851141 17673 net.cpp:131] Top shape: 50 4096 (204800)
I0803 16:20:35.851146 17673 net.cpp:139] Memory required for data: 339730800
I0803 16:20:35.851164 17673 layer_factory.hpp:77] Creating layer drop6
I0803 16:20:35.851176 17673 net.cpp:86] Creating Layer drop6
I0803 16:20:35.851182 17673 net.cpp:408] drop6 <- fc6
I0803 16:20:35.851188 17673 net.cpp:369] drop6 -> fc6 (in-place)
I0803 16:20:35.851246 17673 net.cpp:124] Setting up drop6
I0803 16:20:35.851258 17673 net.cpp:131] Top shape: 50 4096 (204800)
I0803 16:20:35.851264 17673 net.cpp:139] Memory required for data: 340550000
I0803 16:20:35.851269 17673 layer_factory.hpp:77] Creating layer fc7
I0803 16:20:35.851281 17673 net.cpp:86] Creating Layer fc7
I0803 16:20:35.851287 17673 net.cpp:408] fc7 <- fc6
I0803 16:20:35.851300 17673 net.cpp:382] fc7 -> fc7
I0803 16:20:36.478324 17673 net.cpp:124] Setting up fc7
I0803 16:20:36.478377 17673 net.cpp:131] Top shape: 50 4096 (204800)
I0803 16:20:36.478384 17673 net.cpp:139] Memory required for data: 341369200
I0803 16:20:36.478399 17673 layer_factory.hpp:77] Creating layer relu7
I0803 16:20:36.478412 17673 net.cpp:86] Creating Layer relu7
I0803 16:20:36.478420 17673 net.cpp:408] relu7 <- fc7
I0803 16:20:36.478446 17673 net.cpp:369] relu7 -> fc7 (in-place)
I0803 16:20:36.478763 17673 net.cpp:124] Setting up relu7
I0803 16:20:36.478778 17673 net.cpp:131] Top shape: 50 4096 (204800)
I0803 16:20:36.478783 17673 net.cpp:139] Memory required for data: 342188400
I0803 16:20:36.478788 17673 layer_factory.hpp:77] Creating layer drop7
I0803 16:20:36.478798 17673 net.cpp:86] Creating Layer drop7
I0803 16:20:36.478802 17673 net.cpp:408] drop7 <- fc7
I0803 16:20:36.478811 17673 net.cpp:369] drop7 -> fc7 (in-place)
I0803 16:20:36.478855 17673 net.cpp:124] Setting up drop7
I0803 16:20:36.478868 17673 net.cpp:131] Top shape: 50 4096 (204800)
I0803 16:20:36.478873 17673 net.cpp:139] Memory required for data: 343007600
I0803 16:20:36.478878 17673 layer_factory.hpp:77] Creating layer fc8
I0803 16:20:36.478890 17673 net.cpp:86] Creating Layer fc8
I0803 16:20:36.478896 17673 net.cpp:408] fc8 <- fc7
I0803 16:20:36.478906 17673 net.cpp:382] fc8 -> fc8
I0803 16:20:36.479379 17673 net.cpp:124] Setting up fc8
I0803 16:20:36.479393 17673 net.cpp:131] Top shape: 50 2 (100)
I0803 16:20:36.479398 17673 net.cpp:139] Memory required for data: 343008000
I0803 16:20:36.479418 17673 layer_factory.hpp:77] Creating layer fc8_fc8_0_split
I0803 16:20:36.479444 17673 net.cpp:86] Creating Layer fc8_fc8_0_split
I0803 16:20:36.479449 17673 net.cpp:408] fc8_fc8_0_split <- fc8
I0803 16:20:36.479456 17673 net.cpp:382] fc8_fc8_0_split -> fc8_fc8_0_split_0
I0803 16:20:36.479470 17673 net.cpp:382] fc8_fc8_0_split -> fc8_fc8_0_split_1
I0803 16:20:36.479526 17673 net.cpp:124] Setting up fc8_fc8_0_split
I0803 16:20:36.479537 17673 net.cpp:131] Top shape: 50 2 (100)
I0803 16:20:36.479543 17673 net.cpp:131] Top shape: 50 2 (100)
I0803 16:20:36.479550 17673 net.cpp:139] Memory required for data: 343008800
I0803 16:20:36.479555 17673 layer_factory.hpp:77] Creating layer accuracy
I0803 16:20:36.479575 17673 net.cpp:86] Creating Layer accuracy
I0803 16:20:36.479581 17673 net.cpp:408] accuracy <- fc8_fc8_0_split_0
I0803 16:20:36.479588 17673 net.cpp:408] accuracy <- label_data_1_split_0
I0803 16:20:36.479596 17673 net.cpp:382] accuracy -> accuracy
…
