…
I0828 14:17:36.709944  4902 net.cpp:296] The NetState phase (0) differed from the phase (1) specified by a rule in layer data
I0828 14:17:36.709975  4902 net.cpp:296] The NetState phase (0) differed from the phase (1) specified by a rule in layer accuracy
I0828 14:17:36.710188  4902 net.cpp:53] Initializing net from parameters: 
name: "CaffeNet"
state {
  phase: TRAIN
}
layer {
  name: "data"
  type: "Data"
  top: "data"
  top: "label"
  include {
    phase: TRAIN
  }
  transform_param {
    mirror: true
    crop_size: 227
    mean_value: 104
    mean_value: 117
    mean_value: 123
  }
  data_param {
    source: "train.LMDB"
    batch_size: 256
    backend: LMDB
  }
}
layer {
  name: "conv1"
  type: "Convolution"
  bottom: "data"
  top: "conv1"
  param {
    lr_mult: 1
    decay_mult: 1
  }
  param {
    lr_mult: 2
    decay_mult: 0
  }
  convolution_param {
    num_output: 96
    kernel_size: 11
    stride: 4
    weight_filler {
      type: "gaussian"
      std: 0.01
    }
    bias_filler {
      type: "constant"
      value: 0
    }
  }
}
layer {
  name: "relu1"
  type: "ReLU"
  bottom: "conv1"
  top: "conv1"
}
layer {
  name: "pool1"
  type: "Pooling"
  bottom: "conv1"
  top: "pool1"
  pooling_param {
    pool: MAX
    kernel_size: 3
    stride: 2
  }
}
layer {
  name: "norm1"
  type: "LRN"
  bottom: "pool1"
  top: "norm1"
  lrn_param {
    local_size: 5
    alpha: 0.0001
    beta: 0.75
  }
}
layer {
  name: "conv2"
  type: "Convolution"
  bottom: "norm1"
  top: "conv2"
  param {
    lr_mult: 1
    decay_mult: 1
  }
  param {
    lr_mult: 2
    decay_mult: 0
  }
  convolution_param {
    num_output: 256
    pad: 2
    kernel_size: 5
    group: 2
    weight_filler {
      type: "gaussian"
      std: 0.01
    }
    bias_filler {
      type: "constant"
      value: 1
    }
  }
}
layer {
  name: "relu2"
  type: "ReLU"
  bottom: "conv2"
  top: "conv2"
}
layer {
  name: "pool2"
  type: "Pooling"
  bottom: "conv2"
  top: "pool2"
  pooling_param {
    pool: MAX
    kernel_size: 3
    stride: 2
  }
}
layer {
  name: "norm2"
  type: "LRN"
  bottom: "pool2"
  top: "norm2"
  lrn_param {
    local_size: 5
    alpha: 0.0001
    beta: 0.75
  }
}
layer {
  name: "conv3"
  type: "Convolution"
  bottom: "norm2"
  top: "conv3"
  param {
    lr_mult: 1
    decay_mult: 1
  }
  param {
    lr_mult: 2
    decay_mult: 0
  }
  convolution_param {
    num_output: 384
    pad: 1
    kernel_size: 3
    weight_filler {
      type: "gaussian"
      std: 0.01
    }
    bias_filler {
      type: "constant"
      value: 0
    }
  }
}
layer {
  name: "relu3"
  type: "ReLU"
  bottom: "conv3"
  top: "conv3"
}
layer {
  name: "conv4"
  type: "Convolution"
  bottom: "conv3"
  top: "conv4"
  param {
    lr_mult: 1
    decay_mult: 1
  }
  param {
    lr_mult: 2
    decay_mult: 0
  }
  convolution_param {
    num_output: 384
    pad: 1
    kernel_size: 3
    group: 2
    weight_filler {
      type: "gaussian"
      std: 0.01
    }
    bias_filler {
      type: "constant"
      value: 1
    }
  }
}
layer {
  name: "relu4"
  type: "ReLU"
  bottom: "conv4"
  top: "conv4"
}
layer {
  name: "conv5"
  type: "Convolution"
  bottom: "conv4"
  top: "conv5"
  param {
    lr_mult: 1
    decay_mult: 1
  }
  param {
    lr_mult: 2
    decay_mult: 0
  }
  convolution_param {
    num_output: 256
    pad: 1
    kernel_size: 3
    group: 2
    weight_filler {
      type: "gaussian"
      std: 0.01
    }
    bias_filler {
      type: "constant"
      value: 1
    }
  }
}
layer {
  name: "relu5"
  type: "ReLU"
  bottom: "conv5"
  top: "conv5"
}
layer {
  name: "pool5"
  type: "Pooling"
  bottom: "conv5"
  top: "pool5"
  pooling_param {
    pool: MAX
    kernel_size: 3
    stride: 2
  }
}
layer {
  name: "fc6"
  type: "InnerProduct"
  bottom: "pool5"
  top: "fc6"
  param {
    lr_mult: 1
    decay_mult: 1
  }
  param {
    lr_mult: 2
    decay_mult: 0
  }
  inner_product_param {
    num_output: 4096
    weight_filler {
      type: "gaussian"
      std: 0.005
    }
    bias_filler {
      type: "constant"
      value: 1
    }
  }
}
layer {
  name: "relu6"
  type: "ReLU"
  bottom: "fc6"
  top: "fc6"
}
layer {
  name: "drop6"
  type: "Dropout"
  bottom: "fc6"
  top: "fc6"
  dropout_param {
    dropout_ratio: 0.5
  }
}
layer {
  name: "fc7"
  type: "InnerProduct"
  bottom: "fc6"
  top: "fc7"
  param {
    lr_mult: 1
    decay_mult: 1
  }
  param {
    lr_mult: 2
    decay_mult: 0
  }
  inner_product_param {
    num_output: 4096
    weight_filler {
      type: "gaussian"
      std: 0.005
    }
    bias_filler {
      type: "constant"
      value: 1
    }
  }
}
layer {
  name: "relu7"
  type: "ReLU"
  bottom: "fc7"
  top: "fc7"
}
layer {
  name: "drop7"
  type: "Dropout"
  bottom: "fc7"
  top: "fc7"
  dropout_param {
    dropout_ratio: 0.5
  }
}
layer {
  name: "fc8"
  type: "InnerProduct"
  bottom: "fc7"
  top: "fc8"
  param {
    lr_mult: 1
    decay_mult: 1
  }
  param {
    lr_mult: 2
    decay_mult: 0
  }
  inner_product_param {
    num_output: 2
    weight_filler {
      type: "gaussian"
      std: 0.01
    }
    bias_filler {
      type: "constant"
      value: 0
    }
  }
}
layer {
  name: "loss"
  type: "SoftmaxWithLoss"
  bottom: "fc8"
  bottom: "label"
  top: "loss"
}
I0828 14:17:36.710314  4902 layer_factory.hpp:77] Creating layer data
I0828 14:17:36.712149  4902 db_lmdb.cpp:35] Opened lmdb train.LMDB
I0828 14:17:36.712306  4902 net.cpp:86] Creating Layer data
I0828 14:17:36.712323  4902 net.cpp:382] data -> data
I0828 14:17:36.712359  4902 net.cpp:382] data -> label
I0828 14:17:36.713950  4902 data_layer.cpp:45] output data size: 256,3,227,227
I0828 14:17:37.189167  4902 net.cpp:124] Setting up data
I0828 14:17:37.189226  4902 net.cpp:131] Top shape: 256 3 227 227 (39574272)
I0828 14:17:37.189235  4902 net.cpp:131] Top shape: 256 (256)
I0828 14:17:37.189240  4902 net.cpp:139] Memory required for data: 158298112
I0828 14:17:37.189250  4902 layer_factory.hpp:77] Creating layer conv1
I0828 14:17:37.189280  4902 net.cpp:86] Creating Layer conv1
I0828 14:17:37.189287  4902 net.cpp:408] conv1 <- data
I0828 14:17:37.189302  4902 net.cpp:382] conv1 -> conv1
I0828 14:17:37.757033  4902 net.cpp:124] Setting up conv1
I0828 14:17:37.757091  4902 net.cpp:131] Top shape: 256 96 55 55 (74342400)
I0828 14:17:37.757097  4902 net.cpp:139] Memory required for data: 455667712
I0828 14:17:37.757125  4902 layer_factory.hpp:77] Creating layer relu1
I0828 14:17:37.757158  4902 net.cpp:86] Creating Layer relu1
I0828 14:17:37.757166  4902 net.cpp:408] relu1 <- conv1
I0828 14:17:37.757174  4902 net.cpp:369] relu1 -> conv1 (in-place)
I0828 14:17:37.761884  4902 net.cpp:124] Setting up relu1
I0828 14:17:37.761914  4902 net.cpp:131] Top shape: 256 96 55 55 (74342400)
I0828 14:17:37.761919  4902 net.cpp:139] Memory required for data: 753037312
I0828 14:17:37.761925  4902 layer_factory.hpp:77] Creating layer pool1
I0828 14:17:37.761937  4902 net.cpp:86] Creating Layer pool1
I0828 14:17:37.761942  4902 net.cpp:408] pool1 <- conv1
I0828 14:17:37.761950  4902 net.cpp:382] pool1 -> pool1
I0828 14:17:37.762003  4902 net.cpp:124] Setting up pool1
I0828 14:17:37.762015  4902 net.cpp:131] Top shape: 256 96 27 27 (17915904)
I0828 14:17:37.762022  4902 net.cpp:139] Memory required for data: 824700928
I0828 14:17:37.762027  4902 layer_factory.hpp:77] Creating layer norm1
I0828 14:17:37.762040  4902 net.cpp:86] Creating Layer norm1
I0828 14:17:37.762046  4902 net.cpp:408] norm1 <- pool1
I0828 14:17:37.762054  4902 net.cpp:382] norm1 -> norm1
I0828 14:17:37.764166  4902 net.cpp:124] Setting up norm1
I0828 14:17:37.764183  4902 net.cpp:131] Top shape: 256 96 27 27 (17915904)
I0828 14:17:37.764189  4902 net.cpp:139] Memory required for data: 896364544
I0828 14:17:37.764194  4902 layer_factory.hpp:77] Creating layer conv2
I0828 14:17:37.764214  4902 net.cpp:86] Creating Layer conv2
I0828 14:17:37.764219  4902 net.cpp:408] conv2 <- norm1
I0828 14:17:37.764227  4902 net.cpp:382] conv2 -> conv2
I0828 14:17:37.786803  4902 net.cpp:124] Setting up conv2
I0828 14:17:37.786828  4902 net.cpp:131] Top shape: 256 256 27 27 (47775744)
I0828 14:17:37.786837  4902 net.cpp:139] Memory required for data: 1087467520
I0828 14:17:37.786861  4902 layer_factory.hpp:77] Creating layer relu2
I0828 14:17:37.786877  4902 net.cpp:86] Creating Layer relu2
I0828 14:17:37.786888  4902 net.cpp:408] relu2 <- conv2
I0828 14:17:37.786905  4902 net.cpp:369] relu2 -> conv2 (in-place)
I0828 14:17:37.788046  4902 net.cpp:124] Setting up relu2
I0828 14:17:37.788066  4902 net.cpp:131] Top shape: 256 256 27 27 (47775744)
I0828 14:17:37.788074  4902 net.cpp:139] Memory required for data: 1278570496
I0828 14:17:37.788085  4902 layer_factory.hpp:77] Creating layer pool2
I0828 14:17:37.788100  4902 net.cpp:86] Creating Layer pool2
I0828 14:17:37.788113  4902 net.cpp:408] pool2 <- conv2
I0828 14:17:37.788126  4902 net.cpp:382] pool2 -> pool2
I0828 14:17:37.788199  4902 net.cpp:124] Setting up pool2
I0828 14:17:37.788219  4902 net.cpp:131] Top shape: 256 256 13 13 (11075584)
I0828 14:17:37.788229  4902 net.cpp:139] Memory required for data: 1322872832
I0828 14:17:37.788239  4902 layer_factory.hpp:77] Creating layer norm2
I0828 14:17:37.788255  4902 net.cpp:86] Creating Layer norm2
I0828 14:17:37.788266  4902 net.cpp:408] norm2 <- pool2
I0828 14:17:37.788282  4902 net.cpp:382] norm2 -> norm2
I0828 14:17:37.790320  4902 net.cpp:124] Setting up norm2
I0828 14:17:37.790343  4902 net.cpp:131] Top shape: 256 256 13 13 (11075584)
I0828 14:17:37.790354  4902 net.cpp:139] Memory required for data: 1367175168
I0828 14:17:37.790364  4902 layer_factory.hpp:77] Creating layer conv3
I0828 14:17:37.790387  4902 net.cpp:86] Creating Layer conv3
I0828 14:17:37.790400  4902 net.cpp:408] conv3 <- norm2
I0828 14:17:37.790417  4902 net.cpp:382] conv3 -> conv3
I0828 14:17:37.839246  4902 net.cpp:124] Setting up conv3
I0828 14:17:37.839267  4902 net.cpp:131] Top shape: 256 384 13 13 (16613376)
I0828 14:17:37.839272  4902 net.cpp:139] Memory required for data: 1433628672
I0828 14:17:37.839285  4902 layer_factory.hpp:77] Creating layer relu3
I0828 14:17:37.839299  4902 net.cpp:86] Creating Layer relu3
I0828 14:17:37.839306  4902 net.cpp:408] relu3 <- conv3
I0828 14:17:37.839313  4902 net.cpp:369] relu3 -> conv3 (in-place)
I0828 14:17:37.841856  4902 net.cpp:124] Setting up relu3
I0828 14:17:37.841871  4902 net.cpp:131] Top shape: 256 384 13 13 (16613376)
I0828 14:17:37.841876  4902 net.cpp:139] Memory required for data: 1500082176
I0828 14:17:37.841881  4902 layer_factory.hpp:77] Creating layer conv4
I0828 14:17:37.841897  4902 net.cpp:86] Creating Layer conv4
I0828 14:17:37.841903  4902 net.cpp:408] conv4 <- conv3
I0828 14:17:37.841912  4902 net.cpp:382] conv4 -> conv4
I0828 14:17:37.881634  4902 net.cpp:124] Setting up conv4
I0828 14:17:37.881654  4902 net.cpp:131] Top shape: 256 384 13 13 (16613376)
I0828 14:17:37.881659  4902 net.cpp:139] Memory required for data: 1566535680
I0828 14:17:37.881669  4902 layer_factory.hpp:77] Creating layer relu4
I0828 14:17:37.881682  4902 net.cpp:86] Creating Layer relu4
I0828 14:17:37.881690  4902 net.cpp:408] relu4 <- conv4
I0828 14:17:37.881696  4902 net.cpp:369] relu4 -> conv4 (in-place)
I0828 14:17:37.884158  4902 net.cpp:124] Setting up relu4
I0828 14:17:37.884174  4902 net.cpp:131] Top shape: 256 384 13 13 (16613376)
I0828 14:17:37.884179  4902 net.cpp:139] Memory required for data: 1632989184
I0828 14:17:37.884184  4902 layer_factory.hpp:77] Creating layer conv5
I0828 14:17:37.884199  4902 net.cpp:86] Creating Layer conv5
I0828 14:17:37.884204  4902 net.cpp:408] conv5 <- conv4
I0828 14:17:37.884215  4902 net.cpp:382] conv5 -> conv5
I0828 14:17:37.916887  4902 net.cpp:124] Setting up conv5
I0828 14:17:37.916908  4902 net.cpp:131] Top shape: 256 256 13 13 (11075584)
I0828 14:17:37.916914  4902 net.cpp:139] Memory required for data: 1677291520
I0828 14:17:37.916931  4902 layer_factory.hpp:77] Creating layer relu5
I0828 14:17:37.916944  4902 net.cpp:86] Creating Layer relu5
I0828 14:17:37.916950  4902 net.cpp:408] relu5 <- conv5
I0828 14:17:37.916957  4902 net.cpp:369] relu5 -> conv5 (in-place)
I0828 14:17:37.917179  4902 net.cpp:124] Setting up relu5
I0828 14:17:37.917194  4902 net.cpp:131] Top shape: 256 256 13 13 (11075584)
I0828 14:17:37.917201  4902 net.cpp:139] Memory required for data: 1721593856
I0828 14:17:37.917207  4902 layer_factory.hpp:77] Creating layer pool5
I0828 14:17:37.917218  4902 net.cpp:86] Creating Layer pool5
I0828 14:17:37.917224  4902 net.cpp:408] pool5 <- conv5
I0828 14:17:37.917232  4902 net.cpp:382] pool5 -> pool5
I0828 14:17:37.917296  4902 net.cpp:124] Setting up pool5
I0828 14:17:37.917309  4902 net.cpp:131] Top shape: 256 256 6 6 (2359296)
I0828 14:17:37.917315  4902 net.cpp:139] Memory required for data: 1731031040
I0828 14:17:37.917320  4902 layer_factory.hpp:77] Creating layer fc6
I0828 14:17:37.917348  4902 net.cpp:86] Creating Layer fc6
I0828 14:17:37.917356  4902 net.cpp:408] fc6 <- pool5
I0828 14:17:37.917366  4902 net.cpp:382] fc6 -> fc6
I0828 14:17:39.401329  4902 net.cpp:124] Setting up fc6
I0828 14:17:39.401401  4902 net.cpp:131] Top shape: 256 4096 (1048576)
I0828 14:17:39.401407  4902 net.cpp:139] Memory required for data: 1735225344
I0828 14:17:39.401428  4902 layer_factory.hpp:77] Creating layer relu6
I0828 14:17:39.401465  4902 net.cpp:86] Creating Layer relu6
I0828 14:17:39.401477  4902 net.cpp:408] relu6 <- fc6
I0828 14:17:39.401491  4902 net.cpp:369] relu6 -> fc6 (in-place)
I0828 14:17:39.402755  4902 net.cpp:124] Setting up relu6
I0828 14:17:39.402772  4902 net.cpp:131] Top shape: 256 4096 (1048576)
I0828 14:17:39.402778  4902 net.cpp:139] Memory required for data: 1739419648
I0828 14:17:39.402783  4902 layer_factory.hpp:77] Creating layer drop6
I0828 14:17:39.402818  4902 net.cpp:86] Creating Layer drop6
I0828 14:17:39.402827  4902 net.cpp:408] drop6 <- fc6
I0828 14:17:39.402834  4902 net.cpp:369] drop6 -> fc6 (in-place)
I0828 14:17:39.402868  4902 net.cpp:124] Setting up drop6
I0828 14:17:39.402878  4902 net.cpp:131] Top shape: 256 4096 (1048576)
I0828 14:17:39.402884  4902 net.cpp:139] Memory required for data: 1743613952
I0828 14:17:39.402889  4902 layer_factory.hpp:77] Creating layer fc7
I0828 14:17:39.402912  4902 net.cpp:86] Creating Layer fc7
I0828 14:17:39.402920  4902 net.cpp:408] fc7 <- fc6
I0828 14:17:39.402930  4902 net.cpp:382] fc7 -> fc7
I0828 14:17:40.063350  4902 net.cpp:124] Setting up fc7
I0828 14:17:40.063397  4902 net.cpp:131] Top shape: 256 4096 (1048576)
I0828 14:17:40.063403  4902 net.cpp:139] Memory required for data: 1747808256
I0828 14:17:40.063422  4902 layer_factory.hpp:77] Creating layer relu7
I0828 14:17:40.063441  4902 net.cpp:86] Creating Layer relu7
I0828 14:17:40.063449  4902 net.cpp:408] relu7 <- fc7
I0828 14:17:40.063462  4902 net.cpp:369] relu7 -> fc7 (in-place)
I0828 14:17:40.064172  4902 net.cpp:124] Setting up relu7
I0828 14:17:40.064188  4902 net.cpp:131] Top shape: 256 4096 (1048576)
I0828 14:17:40.064195  4902 net.cpp:139] Memory required for data: 1752002560
I0828 14:17:40.064203  4902 layer_factory.hpp:77] Creating layer drop7
I0828 14:17:40.064220  4902 net.cpp:86] Creating Layer drop7
I0828 14:17:40.064227  4902 net.cpp:408] drop7 <- fc7
I0828 14:17:40.064234  4902 net.cpp:369] drop7 -> fc7 (in-place)
I0828 14:17:40.064270  4902 net.cpp:124] Setting up drop7
I0828 14:17:40.064280  4902 net.cpp:131] Top shape: 256 4096 (1048576)
I0828 14:17:40.064287  4902 net.cpp:139] Memory required for data: 1756196864
I0828 14:17:40.064291  4902 layer_factory.hpp:77] Creating layer fc8
I0828 14:17:40.064304  4902 net.cpp:86] Creating Layer fc8
I0828 14:17:40.064309  4902 net.cpp:408] fc8 <- fc7
I0828 14:17:40.064321  4902 net.cpp:382] fc8 -> fc8
I0828 14:17:40.065485  4902 net.cpp:124] Setting up fc8
I0828 14:17:40.065506  4902 net.cpp:131] Top shape: 256 2 (512)
I0828 14:17:40.065512  4902 net.cpp:139] Memory required for data: 1756198912
I0828 14:17:40.065522  4902 layer_factory.hpp:77] Creating layer loss
I0828 14:17:40.065551  4902 net.cpp:86] Creating Layer loss
I0828 14:17:40.065558  4902 net.cpp:408] loss <- fc8
I0828 14:17:40.065565  4902 net.cpp:408] loss <- label
I0828 14:17:40.065573  4902 net.cpp:382] loss -> loss
I0828 14:17:40.065588  4902 layer_factory.hpp:77] Creating layer loss
…
I0828 14:17:40.067512  4902 solver.cpp:173] Creating test net (#0) specified by net file: caffenet/train_val.prototxt
I0828 14:17:40.067579  4902 net.cpp:296] The NetState phase (1) differed from the phase (0) specified by a rule in layer data
I0828 14:17:40.067836  4902 net.cpp:53] Initializing net from parameters: 
name: "CaffeNet"
state {
  phase: TEST
}
layer {
  name: "data"
  type: "Data"
  top: "data"
  top: "label"
  include {
    phase: TEST
  }
  transform_param {
    mirror: true
    crop_size: 227
    mean_value: 104
    mean_value: 117
    mean_value: 123
  }
  data_param {
    source: "val.LMDB"
    batch_size: 50
    backend: LMDB
  }
}
layer {
  name: "conv1"
  type: "Convolution"
  bottom: "data"
  top: "conv1"
  param {
    lr_mult: 1
    decay_mult: 1
  }
  param {
    lr_mult: 2
    decay_mult: 0
  }
  convolution_param {
    num_output: 96
    kernel_size: 11
    stride: 4
    weight_filler {
      type: "gaussian"
      std: 0.01
    }
    bias_filler {
      type: "constant"
      value: 0
    }
  }
}
layer {
  name: "relu1"
  type: "ReLU"
  bottom: "conv1"
  top: "conv1"
}
layer {
  name: "pool1"
  type: "Pooling"
  bottom: "conv1"
  top: "pool1"
  pooling_param {
    pool: MAX
    kernel_size: 3
    stride: 2
  }
}
layer {
  name: "norm1"
  type: "LRN"
  bottom: "pool1"
  top: "norm1"
  lrn_param {
    local_size: 5
    alpha: 0.0001
    beta: 0.75
  }
}
layer {
  name: "conv2"
  type: "Convolution"
  bottom: "norm1"
  top: "conv2"
  param {
    lr_mult: 1
    decay_mult: 1
  }
  param {
    lr_mult: 2
    decay_mult: 0
  }
  convolution_param {
    num_output: 256
    pad: 2
    kernel_size: 5
    group: 2
    weight_filler {
      type: "gaussian"
      std: 0.01
    }
    bias_filler {
      type: "constant"
      value: 1
    }
  }
}
layer {
  name: "relu2"
  type: "ReLU"
  bottom: "conv2"
  top: "conv2"
}
layer {
  name: "pool2"
  type: "Pooling"
  bottom: "conv2"
  top: "pool2"
  pooling_param {
    pool: MAX
    kernel_size: 3
    stride: 2
  }
}
layer {
  name: "norm2"
  type: "LRN"
  bottom: "pool2"
  top: "norm2"
  lrn_param {
    local_size: 5
    alpha: 0.0001
    beta: 0.75
  }
}
layer {
  name: "conv3"
  type: "Convolution"
  bottom: "norm2"
  top: "conv3"
  param {
    lr_mult: 1
    decay_mult: 1
  }
  param {
    lr_mult: 2
    decay_mult: 0
  }
  convolution_param {
    num_output: 384
    pad: 1
    kernel_size: 3
    weight_filler {
      type: "gaussian"
      std: 0.01
    }
    bias_filler {
      type: "constant"
      value: 0
    }
  }
}
layer {
  name: "relu3"
  type: "ReLU"
  bottom: "conv3"
  top: "conv3"
}
layer {
  name: "conv4"
  type: "Convolution"
  bottom: "conv3"
  top: "conv4"
  param {
    lr_mult: 1
    decay_mult: 1
  }
  param {
    lr_mult: 2
    decay_mult: 0
  }
  convolution_param {
    num_output: 384
    pad: 1
    kernel_size: 3
    group: 2
    weight_filler {
      type: "gaussian"
      std: 0.01
    }
    bias_filler {
      type: "constant"
      value: 1
    }
  }
}
layer {
  name: "relu4"
  type: "ReLU"
  bottom: "conv4"
  top: "conv4"
}
layer {
  name: "conv5"
  type: "Convolution"
  bottom: "conv4"
  top: "conv5"
  param {
    lr_mult: 1
    decay_mult: 1
  }
  param {
    lr_mult: 2
    decay_mult: 0
  }
  convolution_param {
    num_output: 256
    pad: 1
    kernel_size: 3
    group: 2
    weight_filler {
      type: "gaussian"
      std: 0.01
    }
    bias_filler {
      type: "constant"
      value: 1
    }
  }
}
layer {
  name: "relu5"
  type: "ReLU"
  bottom: "conv5"
  top: "conv5"
}
layer {
  name: "pool5"
  type: "Pooling"
  bottom: "conv5"
  top: "pool5"
  pooling_param {
    pool: MAX
    kernel_size: 3
    stride: 2
  }
}
layer {
  name: "fc6"
  type: "InnerProduct"
  bottom: "pool5"
  top: "fc6"
  param {
    lr_mult: 1
    decay_mult: 1
  }
  param {
    lr_mult: 2
    decay_mult: 0
  }
  inner_product_param {
    num_output: 4096
    weight_filler {
      type: "gaussian"
      std: 0.005
    }
    bias_filler {
      type: "constant"
      value: 1
    }
  }
}
layer {
  name: "relu6"
  type: "ReLU"
  bottom: "fc6"
  top: "fc6"
}
layer {
  name: "drop6"
  type: "Dropout"
  bottom: "fc6"
  top: "fc6"
  dropout_param {
    dropout_ratio: 0.5
  }
}
layer {
  name: "fc7"
  type: "InnerProduct"
  bottom: "fc6"
  top: "fc7"
  param {
    lr_mult: 1
    decay_mult: 1
  }
  param {
    lr_mult: 2
    decay_mult: 0
  }
  inner_product_param {
    num_output: 4096
    weight_filler {
      type: "gaussian"
      std: 0.005
    }
    bias_filler {
      type: "constant"
      value: 1
    }
  }
}
layer {
  name: "relu7"
  type: "ReLU"
  bottom: "fc7"
  top: "fc7"
}
layer {
  name: "drop7"
  type: "Dropout"
  bottom: "fc7"
  top: "fc7"
  dropout_param {
    dropout_ratio: 0.5
  }
}
layer {
  name: "fc8"
  type: "InnerProduct"
  bottom: "fc7"
  top: "fc8"
  param {
    lr_mult: 1
    decay_mult: 1
  }
  param {
    lr_mult: 2
    decay_mult: 0
  }
  inner_product_param {
    num_output: 2
    weight_filler {
      type: "gaussian"
      std: 0.01
    }
    bias_filler {
      type: "constant"
      value: 0
    }
  }
}
layer {
  name: "accuracy"
  type: "Accuracy"
  bottom: "fc8"
  bottom: "label"
  top: "accuracy"
  include {
    phase: TEST
  }
}
layer {
  name: "loss"
  type: "SoftmaxWithLoss"
  bottom: "fc8"
  bottom: "label"
  top: "loss"
}
I0828 14:17:40.067981  4902 layer_factory.hpp:77] Creating layer data
I0828 14:17:40.069793  4902 db_lmdb.cpp:35] Opened lmdb val.LMDB
I0828 14:17:40.069947  4902 net.cpp:86] Creating Layer data
I0828 14:17:40.069962  4902 net.cpp:382] data -> data
I0828 14:17:40.069977  4902 net.cpp:382] data -> label
I0828 14:17:40.070381  4902 data_layer.cpp:45] output data size: 50,3,227,227
I0828 14:17:40.186341  4902 net.cpp:124] Setting up data
I0828 14:17:40.186394  4902 net.cpp:131] Top shape: 50 3 227 227 (7729350)
I0828 14:17:40.186403  4902 net.cpp:131] Top shape: 50 (50)
I0828 14:17:40.186408  4902 net.cpp:139] Memory required for data: 30917600
I0828 14:17:40.186424  4902 layer_factory.hpp:77] Creating layer label_data_1_split
I0828 14:17:40.186449  4902 net.cpp:86] Creating Layer label_data_1_split
I0828 14:17:40.186458  4902 net.cpp:408] label_data_1_split <- label
I0828 14:17:40.186471  4902 net.cpp:382] label_data_1_split -> label_data_1_split_0
I0828 14:17:40.186497  4902 net.cpp:382] label_data_1_split -> label_data_1_split_1
I0828 14:17:40.186887  4902 net.cpp:124] Setting up label_data_1_split
I0828 14:17:40.186949  4902 net.cpp:131] Top shape: 50 (50)
I0828 14:17:40.186965  4902 net.cpp:131] Top shape: 50 (50)
I0828 14:17:40.186978  4902 net.cpp:139] Memory required for data: 30918000
I0828 14:17:40.186993  4902 layer_factory.hpp:77] Creating layer conv1
I0828 14:17:40.187037  4902 net.cpp:86] Creating Layer conv1
I0828 14:17:40.187052  4902 net.cpp:408] conv1 <- data
I0828 14:17:40.187077  4902 net.cpp:382] conv1 -> conv1
I0828 14:17:40.196636  4902 net.cpp:124] Setting up conv1
I0828 14:17:40.196686  4902 net.cpp:131] Top shape: 50 96 55 55 (14520000)
I0828 14:17:40.196698  4902 net.cpp:139] Memory required for data: 88998000
I0828 14:17:40.196733  4902 layer_factory.hpp:77] Creating layer relu1
I0828 14:17:40.196764  4902 net.cpp:86] Creating Layer relu1
I0828 14:17:40.196789  4902 net.cpp:408] relu1 <- conv1
I0828 14:17:40.196817  4902 net.cpp:369] relu1 -> conv1 (in-place)
I0828 14:17:40.198181  4902 net.cpp:124] Setting up relu1
I0828 14:17:40.198212  4902 net.cpp:131] Top shape: 50 96 55 55 (14520000)
I0828 14:17:40.198223  4902 net.cpp:139] Memory required for data: 147078000
I0828 14:17:40.198233  4902 layer_factory.hpp:77] Creating layer pool1
I0828 14:17:40.198256  4902 net.cpp:86] Creating Layer pool1
I0828 14:17:40.198273  4902 net.cpp:408] pool1 <- conv1
I0828 14:17:40.198307  4902 net.cpp:382] pool1 -> pool1
I0828 14:17:40.198433  4902 net.cpp:124] Setting up pool1
I0828 14:17:40.198462  4902 net.cpp:131] Top shape: 50 96 27 27 (3499200)
I0828 14:17:40.198515  4902 net.cpp:139] Memory required for data: 161074800
I0828 14:17:40.198551  4902 layer_factory.hpp:77] Creating layer norm1
I0828 14:17:40.198583  4902 net.cpp:86] Creating Layer norm1
I0828 14:17:40.198596  4902 net.cpp:408] norm1 <- pool1
I0828 14:17:40.198612  4902 net.cpp:382] norm1 -> norm1
I0828 14:17:40.200464  4902 net.cpp:124] Setting up norm1
I0828 14:17:40.200495  4902 net.cpp:131] Top shape: 50 96 27 27 (3499200)
I0828 14:17:40.200505  4902 net.cpp:139] Memory required for data: 175071600
I0828 14:17:40.200517  4902 layer_factory.hpp:77] Creating layer conv2
I0828 14:17:40.200541  4902 net.cpp:86] Creating Layer conv2
I0828 14:17:40.200553  4902 net.cpp:408] conv2 <- norm1
I0828 14:17:40.200569  4902 net.cpp:382] conv2 -> conv2
I0828 14:17:40.233587  4902 net.cpp:124] Setting up conv2
I0828 14:17:40.233644  4902 net.cpp:131] Top shape: 50 256 27 27 (9331200)
I0828 14:17:40.233654  4902 net.cpp:139] Memory required for data: 212396400
I0828 14:17:40.233685  4902 layer_factory.hpp:77] Creating layer relu2
I0828 14:17:40.233705  4902 net.cpp:86] Creating Layer relu2
I0828 14:17:40.233713  4902 net.cpp:408] relu2 <- conv2
I0828 14:17:40.233731  4902 net.cpp:369] relu2 -> conv2 (in-place)
I0828 14:17:40.235656  4902 net.cpp:124] Setting up relu2
I0828 14:17:40.235677  4902 net.cpp:131] Top shape: 50 256 27 27 (9331200)
I0828 14:17:40.235684  4902 net.cpp:139] Memory required for data: 249721200
I0828 14:17:40.235692  4902 layer_factory.hpp:77] Creating layer pool2
I0828 14:17:40.235709  4902 net.cpp:86] Creating Layer pool2
I0828 14:17:40.235716  4902 net.cpp:408] pool2 <- conv2
I0828 14:17:40.235726  4902 net.cpp:382] pool2 -> pool2
I0828 14:17:40.235811  4902 net.cpp:124] Setting up pool2
I0828 14:17:40.235828  4902 net.cpp:131] Top shape: 50 256 13 13 (2163200)
I0828 14:17:40.235836  4902 net.cpp:139] Memory required for data: 258374000
I0828 14:17:40.235842  4902 layer_factory.hpp:77] Creating layer norm2
I0828 14:17:40.235857  4902 net.cpp:86] Creating Layer norm2
I0828 14:17:40.235864  4902 net.cpp:408] norm2 <- pool2
I0828 14:17:40.235877  4902 net.cpp:382] norm2 -> norm2
I0828 14:17:40.238703  4902 net.cpp:124] Setting up norm2
I0828 14:17:40.238726  4902 net.cpp:131] Top shape: 50 256 13 13 (2163200)
I0828 14:17:40.238734  4902 net.cpp:139] Memory required for data: 267026800
I0828 14:17:40.238740  4902 layer_factory.hpp:77] Creating layer conv3
I0828 14:17:40.238764  4902 net.cpp:86] Creating Layer conv3
I0828 14:17:40.238770  4902 net.cpp:408] conv3 <- norm2
I0828 14:17:40.238790  4902 net.cpp:382] conv3 -> conv3
I0828 14:17:40.287214  4902 net.cpp:124] Setting up conv3
I0828 14:17:40.287259  4902 net.cpp:131] Top shape: 50 384 13 13 (3244800)
I0828 14:17:40.287266  4902 net.cpp:139] Memory required for data: 280006000
I0828 14:17:40.287287  4902 layer_factory.hpp:77] Creating layer relu3
I0828 14:17:40.287305  4902 net.cpp:86] Creating Layer relu3
I0828 14:17:40.287313  4902 net.cpp:408] relu3 <- conv3
I0828 14:17:40.287324  4902 net.cpp:369] relu3 -> conv3 (in-place)
I0828 14:17:40.289718  4902 net.cpp:124] Setting up relu3
I0828 14:17:40.289736  4902 net.cpp:131] Top shape: 50 384 13 13 (3244800)
I0828 14:17:40.289742  4902 net.cpp:139] Memory required for data: 292985200
I0828 14:17:40.289747  4902 layer_factory.hpp:77] Creating layer conv4
I0828 14:17:40.289767  4902 net.cpp:86] Creating Layer conv4
I0828 14:17:40.289773  4902 net.cpp:408] conv4 <- conv3
I0828 14:17:40.289785  4902 net.cpp:382] conv4 -> conv4
I0828 14:17:40.329342  4902 net.cpp:124] Setting up conv4
I0828 14:17:40.329404  4902 net.cpp:131] Top shape: 50 384 13 13 (3244800)
I0828 14:17:40.329411  4902 net.cpp:139] Memory required for data: 305964400
I0828 14:17:40.329427  4902 layer_factory.hpp:77] Creating layer relu4
I0828 14:17:40.329447  4902 net.cpp:86] Creating Layer relu4
I0828 14:17:40.329460  4902 net.cpp:408] relu4 <- conv4
I0828 14:17:40.329478  4902 net.cpp:369] relu4 -> conv4 (in-place)
I0828 14:17:40.329727  4902 net.cpp:124] Setting up relu4
I0828 14:17:40.329742  4902 net.cpp:131] Top shape: 50 384 13 13 (3244800)
I0828 14:17:40.329747  4902 net.cpp:139] Memory required for data: 318943600
I0828 14:17:40.329753  4902 layer_factory.hpp:77] Creating layer conv5
I0828 14:17:40.329773  4902 net.cpp:86] Creating Layer conv5
I0828 14:17:40.329780  4902 net.cpp:408] conv5 <- conv4
I0828 14:17:40.329790  4902 net.cpp:382] conv5 -> conv5
I0828 14:17:40.355942  4902 net.cpp:124] Setting up conv5
I0828 14:17:40.355996  4902 net.cpp:131] Top shape: 50 256 13 13 (2163200)
I0828 14:17:40.356003  4902 net.cpp:139] Memory required for data: 327596400
I0828 14:17:40.356022  4902 layer_factory.hpp:77] Creating layer relu5
I0828 14:17:40.356036  4902 net.cpp:86] Creating Layer relu5
I0828 14:17:40.356042  4902 net.cpp:408] relu5 <- conv5
I0828 14:17:40.356065  4902 net.cpp:369] relu5 -> conv5 (in-place)
I0828 14:17:40.356307  4902 net.cpp:124] Setting up relu5
I0828 14:17:40.356323  4902 net.cpp:131] Top shape: 50 256 13 13 (2163200)
I0828 14:17:40.356334  4902 net.cpp:139] Memory required for data: 336249200
I0828 14:17:40.356346  4902 layer_factory.hpp:77] Creating layer pool5
I0828 14:17:40.356370  4902 net.cpp:86] Creating Layer pool5
I0828 14:17:40.356379  4902 net.cpp:408] pool5 <- conv5
I0828 14:17:40.356395  4902 net.cpp:382] pool5 -> pool5
I0828 14:17:40.356472  4902 net.cpp:124] Setting up pool5
I0828 14:17:40.356488  4902 net.cpp:131] Top shape: 50 256 6 6 (460800)
I0828 14:17:40.356498  4902 net.cpp:139] Memory required for data: 338092400
I0828 14:17:40.356509  4902 layer_factory.hpp:77] Creating layer fc6
I0828 14:17:40.356530  4902 net.cpp:86] Creating Layer fc6
I0828 14:17:40.356539  4902 net.cpp:408] fc6 <- pool5
I0828 14:17:40.356549  4902 net.cpp:382] fc6 -> fc6
I0828 14:17:41.776018  4902 net.cpp:124] Setting up fc6
I0828 14:17:41.776079  4902 net.cpp:131] Top shape: 50 4096 (204800)
I0828 14:17:41.776085  4902 net.cpp:139] Memory required for data: 338911600
I0828 14:17:41.776100  4902 layer_factory.hpp:77] Creating layer relu6
I0828 14:17:41.776115  4902 net.cpp:86] Creating Layer relu6
I0828 14:17:41.776123  4902 net.cpp:408] relu6 <- fc6
I0828 14:17:41.776149  4902 net.cpp:369] relu6 -> fc6 (in-place)
I0828 14:17:41.776943  4902 net.cpp:124] Setting up relu6
I0828 14:17:41.776959  4902 net.cpp:131] Top shape: 50 4096 (204800)
I0828 14:17:41.776963  4902 net.cpp:139] Memory required for data: 339730800
I0828 14:17:41.776983  4902 layer_factory.hpp:77] Creating layer drop6
I0828 14:17:41.777001  4902 net.cpp:86] Creating Layer drop6
I0828 14:17:41.777007  4902 net.cpp:408] drop6 <- fc6
I0828 14:17:41.777019  4902 net.cpp:369] drop6 -> fc6 (in-place)
I0828 14:17:41.777086  4902 net.cpp:124] Setting up drop6
I0828 14:17:41.777099  4902 net.cpp:131] Top shape: 50 4096 (204800)
I0828 14:17:41.777109  4902 net.cpp:139] Memory required for data: 340550000
I0828 14:17:41.777120  4902 layer_factory.hpp:77] Creating layer fc7
I0828 14:17:41.777145  4902 net.cpp:86] Creating Layer fc7
I0828 14:17:41.777153  4902 net.cpp:408] fc7 <- fc6
I0828 14:17:41.777168  4902 net.cpp:382] fc7 -> fc7
I0828 14:17:42.391299  4902 net.cpp:124] Setting up fc7
I0828 14:17:42.391358  4902 net.cpp:131] Top shape: 50 4096 (204800)
I0828 14:17:42.391364  4902 net.cpp:139] Memory required for data: 341369200
I0828 14:17:42.391379  4902 layer_factory.hpp:77] Creating layer relu7
I0828 14:17:42.391399  4902 net.cpp:86] Creating Layer relu7
I0828 14:17:42.391422  4902 net.cpp:408] relu7 <- fc7
I0828 14:17:42.391443  4902 net.cpp:369] relu7 -> fc7 (in-place)
I0828 14:17:42.391774  4902 net.cpp:124] Setting up relu7
I0828 14:17:42.391800  4902 net.cpp:131] Top shape: 50 4096 (204800)
I0828 14:17:42.391805  4902 net.cpp:139] Memory required for data: 342188400
I0828 14:17:42.391810  4902 layer_factory.hpp:77] Creating layer drop7
I0828 14:17:42.391824  4902 net.cpp:86] Creating Layer drop7
I0828 14:17:42.391829  4902 net.cpp:408] drop7 <- fc7
I0828 14:17:42.391835  4902 net.cpp:369] drop7 -> fc7 (in-place)
I0828 14:17:42.391894  4902 net.cpp:124] Setting up drop7
I0828 14:17:42.391908  4902 net.cpp:131] Top shape: 50 4096 (204800)
I0828 14:17:42.391932  4902 net.cpp:139] Memory required for data: 343007600
I0828 14:17:42.391942  4902 layer_factory.hpp:77] Creating layer fc8
I0828 14:17:42.391960  4902 net.cpp:86] Creating Layer fc8
I0828 14:17:42.391968  4902 net.cpp:408] fc8 <- fc7
I0828 14:17:42.391983  4902 net.cpp:382] fc8 -> fc8
I0828 14:17:42.392465  4902 net.cpp:124] Setting up fc8
I0828 14:17:42.392479  4902 net.cpp:131] Top shape: 50 2 (100)
I0828 14:17:42.392499  4902 net.cpp:139] Memory required for data: 343008000
I0828 14:17:42.392510  4902 layer_factory.hpp:77] Creating layer fc8_fc8_0_split
I0828 14:17:42.392521  4902 net.cpp:86] Creating Layer fc8_fc8_0_split
I0828 14:17:42.392527  4902 net.cpp:408] fc8_fc8_0_split <- fc8
I0828 14:17:42.392537  4902 net.cpp:382] fc8_fc8_0_split -> fc8_fc8_0_split_0
I0828 14:17:42.392547  4902 net.cpp:382] fc8_fc8_0_split -> fc8_fc8_0_split_1
I0828 14:17:42.392601  4902 net.cpp:124] Setting up fc8_fc8_0_split
I0828 14:17:42.392616  4902 net.cpp:131] Top shape: 50 2 (100)
I0828 14:17:42.392622  4902 net.cpp:131] Top shape: 50 2 (100)
I0828 14:17:42.392628  4902 net.cpp:139] Memory required for data: 343008800
I0828 14:17:42.392633  4902 layer_factory.hpp:77] Creating layer accuracy
I0828 14:17:42.392654  4902 net.cpp:86] Creating Layer accuracy
I0828 14:17:42.392662  4902 net.cpp:408] accuracy <- fc8_fc8_0_split_0
I0828 14:17:42.392668  4902 net.cpp:408] accuracy <- label_data_1_split_0
I0828 14:17:42.392683  4902 net.cpp:382] accuracy -> accuracy
…
