…
I0803 10:30:41.687111 13998 net.cpp:296] The NetState phase (0) differed from the phase (1) specified by a rule in layer data
I0803 10:30:41.687142 13998 net.cpp:296] The NetState phase (0) differed from the phase (1) specified by a rule in layer accuracy
I0803 10:30:41.687343 13998 net.cpp:53] Initializing net from parameters: 
name: "CaffeNet"
state {
  phase: TRAIN
}
layer {
  name: "data"
  type: "Data"
  top: "data"
  top: "label"
  include {
    phase: TRAIN
  }
  transform_param {
    mirror: true
    crop_size: 227
    mean_value: 104
    mean_value: 117
    mean_value: 123
  }
  data_param {
    source: "train.LMDB"
    batch_size: 256
    backend: LMDB
  }
}
layer {
  name: "conv1"
  type: "Convolution"
  bottom: "data"
  top: "conv1"
  param {
    lr_mult: 1
    decay_mult: 1
  }
  param {
    lr_mult: 2
    decay_mult: 0
  }
  convolution_param {
    num_output: 96
    kernel_size: 11
    stride: 4
    weight_filler {
      type: "gaussian"
      std: 0.01
    }
    bias_filler {
      type: "constant"
      value: 0
    }
  }
}
layer {
  name: "relu1"
  type: "ReLU"
  bottom: "conv1"
  top: "conv1"
}
layer {
  name: "pool1"
  type: "Pooling"
  bottom: "conv1"
  top: "pool1"
  pooling_param {
    pool: MAX
    kernel_size: 3
    stride: 2
  }
}
layer {
  name: "norm1"
  type: "LRN"
  bottom: "pool1"
  top: "norm1"
  lrn_param {
    local_size: 5
    alpha: 0.0001
    beta: 0.75
  }
}
layer {
  name: "conv2"
  type: "Convolution"
  bottom: "norm1"
  top: "conv2"
  param {
    lr_mult: 1
    decay_mult: 1
  }
  param {
    lr_mult: 2
    decay_mult: 0
  }
  convolution_param {
    num_output: 256
    pad: 2
    kernel_size: 5
    group: 2
    weight_filler {
      type: "gaussian"
      std: 0.01
    }
    bias_filler {
      type: "constant"
      value: 1
    }
  }
}
layer {
  name: "relu2"
  type: "ReLU"
  bottom: "conv2"
  top: "conv2"
}
layer {
  name: "pool2"
  type: "Pooling"
  bottom: "conv2"
  top: "pool2"
  pooling_param {
    pool: MAX
    kernel_size: 3
    stride: 2
  }
}
layer {
  name: "norm2"
  type: "LRN"
  bottom: "pool2"
  top: "norm2"
  lrn_param {
    local_size: 5
    alpha: 0.0001
    beta: 0.75
  }
}
layer {
  name: "conv3"
  type: "Convolution"
  bottom: "norm2"
  top: "conv3"
  param {
    lr_mult: 1
    decay_mult: 1
  }
  param {
    lr_mult: 2
    decay_mult: 0
  }
  convolution_param {
    num_output: 384
    pad: 1
    kernel_size: 3
    weight_filler {
      type: "gaussian"
      std: 0.01
    }
    bias_filler {
      type: "constant"
      value: 0
    }
  }
}
layer {
  name: "relu3"
  type: "ReLU"
  bottom: "conv3"
  top: "conv3"
}
layer {
  name: "conv4"
  type: "Convolution"
  bottom: "conv3"
  top: "conv4"
  param {
    lr_mult: 1
    decay_mult: 1
  }
  param {
    lr_mult: 2
    decay_mult: 0
  }
  convolution_param {
    num_output: 384
    pad: 1
    kernel_size: 3
    group: 2
    weight_filler {
      type: "gaussian"
      std: 0.01
    }
    bias_filler {
      type: "constant"
      value: 1
    }
  }
}
layer {
  name: "relu4"
  type: "ReLU"
  bottom: "conv4"
  top: "conv4"
}
layer {
  name: "conv5"
  type: "Convolution"
  bottom: "conv4"
  top: "conv5"
  param {
    lr_mult: 1
    decay_mult: 1
  }
  param {
    lr_mult: 2
    decay_mult: 0
  }
  convolution_param {
    num_output: 256
    pad: 1
    kernel_size: 3
    group: 2
    weight_filler {
      type: "gaussian"
      std: 0.01
    }
    bias_filler {
      type: "constant"
      value: 1
    }
  }
}
layer {
  name: "relu5"
  type: "ReLU"
  bottom: "conv5"
  top: "conv5"
}
layer {
  name: "pool5"
  type: "Pooling"
  bottom: "conv5"
  top: "pool5"
  pooling_param {
    pool: MAX
    kernel_size: 3
    stride: 2
  }
}
layer {
  name: "fc6"
  type: "InnerProduct"
  bottom: "pool5"
  top: "fc6"
  param {
    lr_mult: 1
    decay_mult: 1
  }
  param {
    lr_mult: 2
    decay_mult: 0
  }
  inner_product_param {
    num_output: 4096
    weight_filler {
      type: "gaussian"
      std: 0.005
    }
    bias_filler {
      type: "constant"
      value: 1
    }
  }
}
layer {
  name: "relu6"
  type: "ReLU"
  bottom: "fc6"
  top: "fc6"
}
layer {
  name: "drop6"
  type: "Dropout"
  bottom: "fc6"
  top: "fc6"
  dropout_param {
    dropout_ratio: 0.5
  }
}
layer {
  name: "fc7"
  type: "InnerProduct"
  bottom: "fc6"
  top: "fc7"
  param {
    lr_mult: 1
    decay_mult: 1
  }
  param {
    lr_mult: 2
    decay_mult: 0
  }
  inner_product_param {
    num_output: 4096
    weight_filler {
      type: "gaussian"
      std: 0.005
    }
    bias_filler {
      type: "constant"
      value: 1
    }
  }
}
layer {
  name: "relu7"
  type: "ReLU"
  bottom: "fc7"
  top: "fc7"
}
layer {
  name: "drop7"
  type: "Dropout"
  bottom: "fc7"
  top: "fc7"
  dropout_param {
    dropout_ratio: 0.5
  }
}
layer {
  name: "fc8"
  type: "InnerProduct"
  bottom: "fc7"
  top: "fc8"
  param {
    lr_mult: 1
    decay_mult: 1
  }
  param {
    lr_mult: 2
    decay_mult: 0
  }
  inner_product_param {
    num_output: 2
    weight_filler {
      type: "gaussian"
      std: 0.01
    }
    bias_filler {
      type: "constant"
      value: 0
    }
  }
}
layer {
  name: "loss"
  type: "SoftmaxWithLoss"
  bottom: "fc8"
  bottom: "label"
  top: "loss"
}
I0803 10:30:41.687443 13998 layer_factory.hpp:77] Creating layer data
I0803 10:30:41.689337 13998 db_lmdb.cpp:35] Opened lmdb train.LMDB
I0803 10:30:41.689491 13998 net.cpp:86] Creating Layer data
I0803 10:30:41.689507 13998 net.cpp:382] data -> data
I0803 10:30:41.689527 13998 net.cpp:382] data -> label
I0803 10:30:41.690944 13998 data_layer.cpp:45] output data size: 256,3,227,227
I0803 10:30:42.110599 13998 net.cpp:124] Setting up data
I0803 10:30:42.110642 13998 net.cpp:131] Top shape: 256 3 227 227 (39574272)
I0803 10:30:42.110651 13998 net.cpp:131] Top shape: 256 (256)
I0803 10:30:42.110657 13998 net.cpp:139] Memory required for data: 158298112
I0803 10:30:42.110667 13998 layer_factory.hpp:77] Creating layer conv1
I0803 10:30:42.110694 13998 net.cpp:86] Creating Layer conv1
I0803 10:30:42.110702 13998 net.cpp:408] conv1 <- data
I0803 10:30:42.110714 13998 net.cpp:382] conv1 -> conv1
I0803 10:30:42.448899 13998 net.cpp:124] Setting up conv1
I0803 10:30:42.448954 13998 net.cpp:131] Top shape: 256 96 55 55 (74342400)
I0803 10:30:42.448962 13998 net.cpp:139] Memory required for data: 455667712
I0803 10:30:42.448989 13998 layer_factory.hpp:77] Creating layer relu1
I0803 10:30:42.449026 13998 net.cpp:86] Creating Layer relu1
I0803 10:30:42.449049 13998 net.cpp:408] relu1 <- conv1
I0803 10:30:42.449059 13998 net.cpp:369] relu1 -> conv1 (in-place)
I0803 10:30:42.449908 13998 net.cpp:124] Setting up relu1
I0803 10:30:42.449928 13998 net.cpp:131] Top shape: 256 96 55 55 (74342400)
I0803 10:30:42.449934 13998 net.cpp:139] Memory required for data: 753037312
I0803 10:30:42.449939 13998 layer_factory.hpp:77] Creating layer pool1
I0803 10:30:42.449956 13998 net.cpp:86] Creating Layer pool1
I0803 10:30:42.449962 13998 net.cpp:408] pool1 <- conv1
I0803 10:30:42.449971 13998 net.cpp:382] pool1 -> pool1
I0803 10:30:42.450049 13998 net.cpp:124] Setting up pool1
I0803 10:30:42.450062 13998 net.cpp:131] Top shape: 256 96 27 27 (17915904)
I0803 10:30:42.450068 13998 net.cpp:139] Memory required for data: 824700928
I0803 10:30:42.450073 13998 layer_factory.hpp:77] Creating layer norm1
I0803 10:30:42.450091 13998 net.cpp:86] Creating Layer norm1
I0803 10:30:42.450098 13998 net.cpp:408] norm1 <- pool1
I0803 10:30:42.450106 13998 net.cpp:382] norm1 -> norm1
I0803 10:30:42.450335 13998 net.cpp:124] Setting up norm1
I0803 10:30:42.450351 13998 net.cpp:131] Top shape: 256 96 27 27 (17915904)
I0803 10:30:42.450357 13998 net.cpp:139] Memory required for data: 896364544
I0803 10:30:42.450366 13998 layer_factory.hpp:77] Creating layer conv2
I0803 10:30:42.450407 13998 net.cpp:86] Creating Layer conv2
I0803 10:30:42.450417 13998 net.cpp:408] conv2 <- norm1
I0803 10:30:42.450426 13998 net.cpp:382] conv2 -> conv2
I0803 10:30:42.467962 13998 net.cpp:124] Setting up conv2
I0803 10:30:42.467983 13998 net.cpp:131] Top shape: 256 256 27 27 (47775744)
I0803 10:30:42.467991 13998 net.cpp:139] Memory required for data: 1087467520
I0803 10:30:42.468004 13998 layer_factory.hpp:77] Creating layer relu2
I0803 10:30:42.468017 13998 net.cpp:86] Creating Layer relu2
I0803 10:30:42.468024 13998 net.cpp:408] relu2 <- conv2
I0803 10:30:42.468031 13998 net.cpp:369] relu2 -> conv2 (in-place)
I0803 10:30:42.468261 13998 net.cpp:124] Setting up relu2
I0803 10:30:42.468276 13998 net.cpp:131] Top shape: 256 256 27 27 (47775744)
I0803 10:30:42.468283 13998 net.cpp:139] Memory required for data: 1278570496
I0803 10:30:42.468288 13998 layer_factory.hpp:77] Creating layer pool2
I0803 10:30:42.468298 13998 net.cpp:86] Creating Layer pool2
I0803 10:30:42.468304 13998 net.cpp:408] pool2 <- conv2
I0803 10:30:42.468314 13998 net.cpp:382] pool2 -> pool2
I0803 10:30:42.468369 13998 net.cpp:124] Setting up pool2
I0803 10:30:42.468379 13998 net.cpp:131] Top shape: 256 256 13 13 (11075584)
I0803 10:30:42.468384 13998 net.cpp:139] Memory required for data: 1322872832
I0803 10:30:42.468390 13998 layer_factory.hpp:77] Creating layer norm2
I0803 10:30:42.468405 13998 net.cpp:86] Creating Layer norm2
I0803 10:30:42.468411 13998 net.cpp:408] norm2 <- pool2
I0803 10:30:42.468418 13998 net.cpp:382] norm2 -> norm2
I0803 10:30:42.469221 13998 net.cpp:124] Setting up norm2
I0803 10:30:42.469238 13998 net.cpp:131] Top shape: 256 256 13 13 (11075584)
I0803 10:30:42.469244 13998 net.cpp:139] Memory required for data: 1367175168
I0803 10:30:42.469250 13998 layer_factory.hpp:77] Creating layer conv3
I0803 10:30:42.469269 13998 net.cpp:86] Creating Layer conv3
I0803 10:30:42.469277 13998 net.cpp:408] conv3 <- norm2
I0803 10:30:42.469290 13998 net.cpp:382] conv3 -> conv3
I0803 10:30:42.505844 13998 net.cpp:124] Setting up conv3
I0803 10:30:42.505867 13998 net.cpp:131] Top shape: 256 384 13 13 (16613376)
I0803 10:30:42.505875 13998 net.cpp:139] Memory required for data: 1433628672
I0803 10:30:42.505890 13998 layer_factory.hpp:77] Creating layer relu3
I0803 10:30:42.505903 13998 net.cpp:86] Creating Layer relu3
I0803 10:30:42.505909 13998 net.cpp:408] relu3 <- conv3
I0803 10:30:42.505918 13998 net.cpp:369] relu3 -> conv3 (in-place)
I0803 10:30:42.506140 13998 net.cpp:124] Setting up relu3
I0803 10:30:42.506155 13998 net.cpp:131] Top shape: 256 384 13 13 (16613376)
I0803 10:30:42.506162 13998 net.cpp:139] Memory required for data: 1500082176
I0803 10:30:42.506167 13998 layer_factory.hpp:77] Creating layer conv4
I0803 10:30:42.506183 13998 net.cpp:86] Creating Layer conv4
I0803 10:30:42.506191 13998 net.cpp:408] conv4 <- conv3
I0803 10:30:42.506202 13998 net.cpp:382] conv4 -> conv4
I0803 10:30:42.535795 13998 net.cpp:124] Setting up conv4
I0803 10:30:42.535816 13998 net.cpp:131] Top shape: 256 384 13 13 (16613376)
I0803 10:30:42.535823 13998 net.cpp:139] Memory required for data: 1566535680
I0803 10:30:42.535835 13998 layer_factory.hpp:77] Creating layer relu4
I0803 10:30:42.535848 13998 net.cpp:86] Creating Layer relu4
I0803 10:30:42.535856 13998 net.cpp:408] relu4 <- conv4
I0803 10:30:42.535866 13998 net.cpp:369] relu4 -> conv4 (in-place)
I0803 10:30:42.536084 13998 net.cpp:124] Setting up relu4
I0803 10:30:42.536098 13998 net.cpp:131] Top shape: 256 384 13 13 (16613376)
I0803 10:30:42.536105 13998 net.cpp:139] Memory required for data: 1632989184
I0803 10:30:42.536111 13998 layer_factory.hpp:77] Creating layer conv5
I0803 10:30:42.536129 13998 net.cpp:86] Creating Layer conv5
I0803 10:30:42.536136 13998 net.cpp:408] conv5 <- conv4
I0803 10:30:42.536145 13998 net.cpp:382] conv5 -> conv5
I0803 10:30:42.557849 13998 net.cpp:124] Setting up conv5
I0803 10:30:42.557869 13998 net.cpp:131] Top shape: 256 256 13 13 (11075584)
I0803 10:30:42.557876 13998 net.cpp:139] Memory required for data: 1677291520
I0803 10:30:42.557891 13998 layer_factory.hpp:77] Creating layer relu5
I0803 10:30:42.557905 13998 net.cpp:86] Creating Layer relu5
I0803 10:30:42.557912 13998 net.cpp:408] relu5 <- conv5
I0803 10:30:42.557919 13998 net.cpp:369] relu5 -> conv5 (in-place)
I0803 10:30:42.558135 13998 net.cpp:124] Setting up relu5
I0803 10:30:42.558149 13998 net.cpp:131] Top shape: 256 256 13 13 (11075584)
I0803 10:30:42.558156 13998 net.cpp:139] Memory required for data: 1721593856
I0803 10:30:42.558161 13998 layer_factory.hpp:77] Creating layer pool5
I0803 10:30:42.558176 13998 net.cpp:86] Creating Layer pool5
I0803 10:30:42.558182 13998 net.cpp:408] pool5 <- conv5
I0803 10:30:42.558192 13998 net.cpp:382] pool5 -> pool5
I0803 10:30:42.558254 13998 net.cpp:124] Setting up pool5
I0803 10:30:42.558265 13998 net.cpp:131] Top shape: 256 256 6 6 (2359296)
I0803 10:30:42.558271 13998 net.cpp:139] Memory required for data: 1731031040
I0803 10:30:42.558276 13998 layer_factory.hpp:77] Creating layer fc6
I0803 10:30:42.558292 13998 net.cpp:86] Creating Layer fc6
I0803 10:30:42.558300 13998 net.cpp:408] fc6 <- pool5
I0803 10:30:42.558310 13998 net.cpp:382] fc6 -> fc6
I0803 10:30:43.971807 13998 net.cpp:124] Setting up fc6
I0803 10:30:43.971851 13998 net.cpp:131] Top shape: 256 4096 (1048576)
I0803 10:30:43.971858 13998 net.cpp:139] Memory required for data: 1735225344
I0803 10:30:43.971873 13998 layer_factory.hpp:77] Creating layer relu6
I0803 10:30:43.971887 13998 net.cpp:86] Creating Layer relu6
I0803 10:30:43.971894 13998 net.cpp:408] relu6 <- fc6
I0803 10:30:43.971904 13998 net.cpp:369] relu6 -> fc6 (in-place)
I0803 10:30:43.972868 13998 net.cpp:124] Setting up relu6
I0803 10:30:43.972898 13998 net.cpp:131] Top shape: 256 4096 (1048576)
I0803 10:30:43.972904 13998 net.cpp:139] Memory required for data: 1739419648
I0803 10:30:43.972909 13998 layer_factory.hpp:77] Creating layer drop6
I0803 10:30:43.972930 13998 net.cpp:86] Creating Layer drop6
I0803 10:30:43.972937 13998 net.cpp:408] drop6 <- fc6
I0803 10:30:43.972946 13998 net.cpp:369] drop6 -> fc6 (in-place)
I0803 10:30:43.972980 13998 net.cpp:124] Setting up drop6
I0803 10:30:43.972993 13998 net.cpp:131] Top shape: 256 4096 (1048576)
I0803 10:30:43.973001 13998 net.cpp:139] Memory required for data: 1743613952
I0803 10:30:43.973006 13998 layer_factory.hpp:77] Creating layer fc7
I0803 10:30:43.973018 13998 net.cpp:86] Creating Layer fc7
I0803 10:30:43.973024 13998 net.cpp:408] fc7 <- fc6
I0803 10:30:43.973034 13998 net.cpp:382] fc7 -> fc7
I0803 10:30:44.621685 13998 net.cpp:124] Setting up fc7
I0803 10:30:44.621742 13998 net.cpp:131] Top shape: 256 4096 (1048576)
I0803 10:30:44.621747 13998 net.cpp:139] Memory required for data: 1747808256
I0803 10:30:44.621762 13998 layer_factory.hpp:77] Creating layer relu7
I0803 10:30:44.621776 13998 net.cpp:86] Creating Layer relu7
I0803 10:30:44.621783 13998 net.cpp:408] relu7 <- fc7
I0803 10:30:44.621796 13998 net.cpp:369] relu7 -> fc7 (in-place)
I0803 10:30:44.622778 13998 net.cpp:124] Setting up relu7
I0803 10:30:44.622797 13998 net.cpp:131] Top shape: 256 4096 (1048576)
I0803 10:30:44.622802 13998 net.cpp:139] Memory required for data: 1752002560
I0803 10:30:44.622807 13998 layer_factory.hpp:77] Creating layer drop7
I0803 10:30:44.622817 13998 net.cpp:86] Creating Layer drop7
I0803 10:30:44.622822 13998 net.cpp:408] drop7 <- fc7
I0803 10:30:44.622828 13998 net.cpp:369] drop7 -> fc7 (in-place)
I0803 10:30:44.622866 13998 net.cpp:124] Setting up drop7
I0803 10:30:44.622877 13998 net.cpp:131] Top shape: 256 4096 (1048576)
I0803 10:30:44.622884 13998 net.cpp:139] Memory required for data: 1756196864
I0803 10:30:44.622889 13998 layer_factory.hpp:77] Creating layer fc8
I0803 10:30:44.622902 13998 net.cpp:86] Creating Layer fc8
I0803 10:30:44.622908 13998 net.cpp:408] fc8 <- fc7
I0803 10:30:44.622917 13998 net.cpp:382] fc8 -> fc8
I0803 10:30:44.624008 13998 net.cpp:124] Setting up fc8
I0803 10:30:44.624023 13998 net.cpp:131] Top shape: 256 2 (512)
I0803 10:30:44.624028 13998 net.cpp:139] Memory required for data: 1756198912
I0803 10:30:44.624049 13998 layer_factory.hpp:77] Creating layer loss
I0803 10:30:44.624061 13998 net.cpp:86] Creating Layer loss
I0803 10:30:44.624066 13998 net.cpp:408] loss <- fc8
I0803 10:30:44.624073 13998 net.cpp:408] loss <- label
I0803 10:30:44.624078 13998 net.cpp:382] loss -> loss
I0803 10:30:44.624101 13998 layer_factory.hpp:77] Creating layer loss
…
I0803 10:30:44.626150 13998 solver.cpp:173] Creating test net (#0) specified by net file: caffenet/train_val.prototxt
I0803 10:30:44.626211 13998 net.cpp:296] The NetState phase (1) differed from the phase (0) specified by a rule in layer data
I0803 10:30:44.626452 13998 net.cpp:53] Initializing net from parameters: 
name: "CaffeNet"
state {
  phase: TEST
}
layer {
  name: "data"
  type: "Data"
  top: "data"
  top: "label"
  include {
    phase: TEST
  }
  transform_param {
    mirror: true
    crop_size: 227
    mean_value: 104
    mean_value: 117
    mean_value: 123
  }
  data_param {
    source: "val.LMDB"
    batch_size: 50
    backend: LMDB
  }
}
layer {
  name: "conv1"
  type: "Convolution"
  bottom: "data"
  top: "conv1"
  param {
    lr_mult: 1
    decay_mult: 1
  }
  param {
    lr_mult: 2
    decay_mult: 0
  }
  convolution_param {
    num_output: 96
    kernel_size: 11
    stride: 4
    weight_filler {
      type: "gaussian"
      std: 0.01
    }
    bias_filler {
      type: "constant"
      value: 0
    }
  }
}
layer {
  name: "relu1"
  type: "ReLU"
  bottom: "conv1"
  top: "conv1"
}
layer {
  name: "pool1"
  type: "Pooling"
  bottom: "conv1"
  top: "pool1"
  pooling_param {
    pool: MAX
    kernel_size: 3
    stride: 2
  }
}
layer {
  name: "norm1"
  type: "LRN"
  bottom: "pool1"
  top: "norm1"
  lrn_param {
    local_size: 5
    alpha: 0.0001
    beta: 0.75
  }
}
layer {
  name: "conv2"
  type: "Convolution"
  bottom: "norm1"
  top: "conv2"
  param {
    lr_mult: 1
    decay_mult: 1
  }
  param {
    lr_mult: 2
    decay_mult: 0
  }
  convolution_param {
    num_output: 256
    pad: 2
    kernel_size: 5
    group: 2
    weight_filler {
      type: "gaussian"
      std: 0.01
    }
    bias_filler {
      type: "constant"
      value: 1
    }
  }
}
layer {
  name: "relu2"
  type: "ReLU"
  bottom: "conv2"
  top: "conv2"
}
layer {
  name: "pool2"
  type: "Pooling"
  bottom: "conv2"
  top: "pool2"
  pooling_param {
    pool: MAX
    kernel_size: 3
    stride: 2
  }
}
layer {
  name: "norm2"
  type: "LRN"
  bottom: "pool2"
  top: "norm2"
  lrn_param {
    local_size: 5
    alpha: 0.0001
    beta: 0.75
  }
}
layer {
  name: "conv3"
  type: "Convolution"
  bottom: "norm2"
  top: "conv3"
  param {
    lr_mult: 1
    decay_mult: 1
  }
  param {
    lr_mult: 2
    decay_mult: 0
  }
  convolution_param {
    num_output: 384
    pad: 1
    kernel_size: 3
    weight_filler {
      type: "gaussian"
      std: 0.01
    }
    bias_filler {
      type: "constant"
      value: 0
    }
  }
}
layer {
  name: "relu3"
  type: "ReLU"
  bottom: "conv3"
  top: "conv3"
}
layer {
  name: "conv4"
  type: "Convolution"
  bottom: "conv3"
  top: "conv4"
  param {
    lr_mult: 1
    decay_mult: 1
  }
  param {
    lr_mult: 2
    decay_mult: 0
  }
  convolution_param {
    num_output: 384
    pad: 1
    kernel_size: 3
    group: 2
    weight_filler {
      type: "gaussian"
      std: 0.01
    }
    bias_filler {
      type: "constant"
      value: 1
    }
  }
}
layer {
  name: "relu4"
  type: "ReLU"
  bottom: "conv4"
  top: "conv4"
}
layer {
  name: "conv5"
  type: "Convolution"
  bottom: "conv4"
  top: "conv5"
  param {
    lr_mult: 1
    decay_mult: 1
  }
  param {
    lr_mult: 2
    decay_mult: 0
  }
  convolution_param {
    num_output: 256
    pad: 1
    kernel_size: 3
    group: 2
    weight_filler {
      type: "gaussian"
      std: 0.01
    }
    bias_filler {
      type: "constant"
      value: 1
    }
  }
}
layer {
  name: "relu5"
  type: "ReLU"
  bottom: "conv5"
  top: "conv5"
}
layer {
  name: "pool5"
  type: "Pooling"
  bottom: "conv5"
  top: "pool5"
  pooling_param {
    pool: MAX
    kernel_size: 3
    stride: 2
  }
}
layer {
  name: "fc6"
  type: "InnerProduct"
  bottom: "pool5"
  top: "fc6"
  param {
    lr_mult: 1
    decay_mult: 1
  }
  param {
    lr_mult: 2
    decay_mult: 0
  }
  inner_product_param {
    num_output: 4096
    weight_filler {
      type: "gaussian"
      std: 0.005
    }
    bias_filler {
      type: "constant"
      value: 1
    }
  }
}
layer {
  name: "relu6"
  type: "ReLU"
  bottom: "fc6"
  top: "fc6"
}
layer {
  name: "drop6"
  type: "Dropout"
  bottom: "fc6"
  top: "fc6"
  dropout_param {
    dropout_ratio: 0.5
  }
}
layer {
  name: "fc7"
  type: "InnerProduct"
  bottom: "fc6"
  top: "fc7"
  param {
    lr_mult: 1
    decay_mult: 1
  }
  param {
    lr_mult: 2
    decay_mult: 0
  }
  inner_product_param {
    num_output: 4096
    weight_filler {
      type: "gaussian"
      std: 0.005
    }
    bias_filler {
      type: "constant"
      value: 1
    }
  }
}
layer {
  name: "relu7"
  type: "ReLU"
  bottom: "fc7"
  top: "fc7"
}
layer {
  name: "drop7"
  type: "Dropout"
  bottom: "fc7"
  top: "fc7"
  dropout_param {
    dropout_ratio: 0.5
  }
}
layer {
  name: "fc8"
  type: "InnerProduct"
  bottom: "fc7"
  top: "fc8"
  param {
    lr_mult: 1
    decay_mult: 1
  }
  param {
    lr_mult: 2
    decay_mult: 0
  }
  inner_product_param {
    num_output: 2
    weight_filler {
      type: "gaussian"
      std: 0.01
    }
    bias_filler {
      type: "constant"
      value: 0
    }
  }
}
layer {
  name: "accuracy"
  type: "Accuracy"
  bottom: "fc8"
  bottom: "label"
  top: "accuracy"
  include {
    phase: TEST
  }
}
layer {
  name: "loss"
  type: "SoftmaxWithLoss"
  bottom: "fc8"
  bottom: "label"
  top: "loss"
}
I0803 10:30:44.626606 13998 layer_factory.hpp:77] Creating layer data
I0803 10:30:44.628324 13998 db_lmdb.cpp:35] Opened lmdb val.LMDB
I0803 10:30:44.628470 13998 net.cpp:86] Creating Layer data
I0803 10:30:44.628485 13998 net.cpp:382] data -> data
I0803 10:30:44.628500 13998 net.cpp:382] data -> label
I0803 10:30:44.628865 13998 data_layer.cpp:45] output data size: 50,3,227,227
I0803 10:30:44.714426 13998 net.cpp:124] Setting up data
I0803 10:30:44.714491 13998 net.cpp:131] Top shape: 50 3 227 227 (7729350)
I0803 10:30:44.714503 13998 net.cpp:131] Top shape: 50 (50)
I0803 10:30:44.714509 13998 net.cpp:139] Memory required for data: 30917600
I0803 10:30:44.714519 13998 layer_factory.hpp:77] Creating layer label_data_1_split
I0803 10:30:44.714536 13998 net.cpp:86] Creating Layer label_data_1_split
I0803 10:30:44.714543 13998 net.cpp:408] label_data_1_split <- label
I0803 10:30:44.714555 13998 net.cpp:382] label_data_1_split -> label_data_1_split_0
I0803 10:30:44.714573 13998 net.cpp:382] label_data_1_split -> label_data_1_split_1
I0803 10:30:44.714650 13998 net.cpp:124] Setting up label_data_1_split
I0803 10:30:44.714663 13998 net.cpp:131] Top shape: 50 (50)
I0803 10:30:44.714669 13998 net.cpp:131] Top shape: 50 (50)
I0803 10:30:44.714674 13998 net.cpp:139] Memory required for data: 30918000
I0803 10:30:44.714680 13998 layer_factory.hpp:77] Creating layer conv1
I0803 10:30:44.714701 13998 net.cpp:86] Creating Layer conv1
I0803 10:30:44.714709 13998 net.cpp:408] conv1 <- data
I0803 10:30:44.714717 13998 net.cpp:382] conv1 -> conv1
I0803 10:30:44.724597 13998 net.cpp:124] Setting up conv1
I0803 10:30:44.724668 13998 net.cpp:131] Top shape: 50 96 55 55 (14520000)
I0803 10:30:44.724684 13998 net.cpp:139] Memory required for data: 88998000
I0803 10:30:44.724723 13998 layer_factory.hpp:77] Creating layer relu1
I0803 10:30:44.724755 13998 net.cpp:86] Creating Layer relu1
I0803 10:30:44.724771 13998 net.cpp:408] relu1 <- conv1
I0803 10:30:44.724787 13998 net.cpp:369] relu1 -> conv1 (in-place)
I0803 10:30:44.725204 13998 net.cpp:124] Setting up relu1
I0803 10:30:44.725234 13998 net.cpp:131] Top shape: 50 96 55 55 (14520000)
I0803 10:30:44.725244 13998 net.cpp:139] Memory required for data: 147078000
I0803 10:30:44.725258 13998 layer_factory.hpp:77] Creating layer pool1
I0803 10:30:44.725282 13998 net.cpp:86] Creating Layer pool1
I0803 10:30:44.725296 13998 net.cpp:408] pool1 <- conv1
I0803 10:30:44.725311 13998 net.cpp:382] pool1 -> pool1
I0803 10:30:44.725430 13998 net.cpp:124] Setting up pool1
I0803 10:30:44.725455 13998 net.cpp:131] Top shape: 50 96 27 27 (3499200)
I0803 10:30:44.725466 13998 net.cpp:139] Memory required for data: 161074800
I0803 10:30:44.725476 13998 layer_factory.hpp:77] Creating layer norm1
I0803 10:30:44.725499 13998 net.cpp:86] Creating Layer norm1
I0803 10:30:44.725512 13998 net.cpp:408] norm1 <- pool1
I0803 10:30:44.725528 13998 net.cpp:382] norm1 -> norm1
I0803 10:30:44.727089 13998 net.cpp:124] Setting up norm1
I0803 10:30:44.727123 13998 net.cpp:131] Top shape: 50 96 27 27 (3499200)
I0803 10:30:44.727134 13998 net.cpp:139] Memory required for data: 175071600
I0803 10:30:44.727145 13998 layer_factory.hpp:77] Creating layer conv2
I0803 10:30:44.727177 13998 net.cpp:86] Creating Layer conv2
I0803 10:30:44.727190 13998 net.cpp:408] conv2 <- norm1
I0803 10:30:44.727208 13998 net.cpp:382] conv2 -> conv2
I0803 10:30:44.754590 13998 net.cpp:124] Setting up conv2
I0803 10:30:44.754652 13998 net.cpp:131] Top shape: 50 256 27 27 (9331200)
I0803 10:30:44.754662 13998 net.cpp:139] Memory required for data: 212396400
I0803 10:30:44.754693 13998 layer_factory.hpp:77] Creating layer relu2
I0803 10:30:44.754719 13998 net.cpp:86] Creating Layer relu2
I0803 10:30:44.754732 13998 net.cpp:408] relu2 <- conv2
I0803 10:30:44.754746 13998 net.cpp:369] relu2 -> conv2 (in-place)
I0803 10:30:44.755126 13998 net.cpp:124] Setting up relu2
I0803 10:30:44.755149 13998 net.cpp:131] Top shape: 50 256 27 27 (9331200)
I0803 10:30:44.755158 13998 net.cpp:139] Memory required for data: 249721200
I0803 10:30:44.755167 13998 layer_factory.hpp:77] Creating layer pool2
I0803 10:30:44.755192 13998 net.cpp:86] Creating Layer pool2
I0803 10:30:44.755200 13998 net.cpp:408] pool2 <- conv2
I0803 10:30:44.755218 13998 net.cpp:382] pool2 -> pool2
I0803 10:30:44.755323 13998 net.cpp:124] Setting up pool2
I0803 10:30:44.755344 13998 net.cpp:131] Top shape: 50 256 13 13 (2163200)
I0803 10:30:44.755354 13998 net.cpp:139] Memory required for data: 258374000
I0803 10:30:44.755362 13998 layer_factory.hpp:77] Creating layer norm2
I0803 10:30:44.755383 13998 net.cpp:86] Creating Layer norm2
I0803 10:30:44.755394 13998 net.cpp:408] norm2 <- pool2
I0803 10:30:44.755406 13998 net.cpp:382] norm2 -> norm2
I0803 10:30:44.756712 13998 net.cpp:124] Setting up norm2
I0803 10:30:44.756739 13998 net.cpp:131] Top shape: 50 256 13 13 (2163200)
I0803 10:30:44.756750 13998 net.cpp:139] Memory required for data: 267026800
I0803 10:30:44.756762 13998 layer_factory.hpp:77] Creating layer conv3
I0803 10:30:44.756791 13998 net.cpp:86] Creating Layer conv3
I0803 10:30:44.756803 13998 net.cpp:408] conv3 <- norm2
I0803 10:30:44.756821 13998 net.cpp:382] conv3 -> conv3
I0803 10:30:44.806884 13998 net.cpp:124] Setting up conv3
I0803 10:30:44.806936 13998 net.cpp:131] Top shape: 50 384 13 13 (3244800)
I0803 10:30:44.806943 13998 net.cpp:139] Memory required for data: 280006000
I0803 10:30:44.806973 13998 layer_factory.hpp:77] Creating layer relu3
I0803 10:30:44.806995 13998 net.cpp:86] Creating Layer relu3
I0803 10:30:44.807005 13998 net.cpp:408] relu3 <- conv3
I0803 10:30:44.807018 13998 net.cpp:369] relu3 -> conv3 (in-place)
I0803 10:30:44.807930 13998 net.cpp:124] Setting up relu3
I0803 10:30:44.807951 13998 net.cpp:131] Top shape: 50 384 13 13 (3244800)
I0803 10:30:44.807960 13998 net.cpp:139] Memory required for data: 292985200
I0803 10:30:44.807966 13998 layer_factory.hpp:77] Creating layer conv4
I0803 10:30:44.807991 13998 net.cpp:86] Creating Layer conv4
I0803 10:30:44.808001 13998 net.cpp:408] conv4 <- conv3
I0803 10:30:44.808027 13998 net.cpp:382] conv4 -> conv4
I0803 10:30:44.847743 13998 net.cpp:124] Setting up conv4
I0803 10:30:44.847800 13998 net.cpp:131] Top shape: 50 384 13 13 (3244800)
I0803 10:30:44.847807 13998 net.cpp:139] Memory required for data: 305964400
I0803 10:30:44.847826 13998 layer_factory.hpp:77] Creating layer relu4
I0803 10:30:44.847843 13998 net.cpp:86] Creating Layer relu4
I0803 10:30:44.847851 13998 net.cpp:408] relu4 <- conv4
I0803 10:30:44.847867 13998 net.cpp:369] relu4 -> conv4 (in-place)
I0803 10:30:44.848132 13998 net.cpp:124] Setting up relu4
I0803 10:30:44.848147 13998 net.cpp:131] Top shape: 50 384 13 13 (3244800)
I0803 10:30:44.848155 13998 net.cpp:139] Memory required for data: 318943600
I0803 10:30:44.848160 13998 layer_factory.hpp:77] Creating layer conv5
I0803 10:30:44.848186 13998 net.cpp:86] Creating Layer conv5
I0803 10:30:44.848194 13998 net.cpp:408] conv5 <- conv4
I0803 10:30:44.848204 13998 net.cpp:382] conv5 -> conv5
I0803 10:30:44.870498 13998 net.cpp:124] Setting up conv5
I0803 10:30:44.870551 13998 net.cpp:131] Top shape: 50 256 13 13 (2163200)
I0803 10:30:44.870558 13998 net.cpp:139] Memory required for data: 327596400
I0803 10:30:44.870584 13998 layer_factory.hpp:77] Creating layer relu5
I0803 10:30:44.870601 13998 net.cpp:86] Creating Layer relu5
I0803 10:30:44.870609 13998 net.cpp:408] relu5 <- conv5
I0803 10:30:44.870625 13998 net.cpp:369] relu5 -> conv5 (in-place)
I0803 10:30:44.870858 13998 net.cpp:124] Setting up relu5
I0803 10:30:44.870873 13998 net.cpp:131] Top shape: 50 256 13 13 (2163200)
I0803 10:30:44.870880 13998 net.cpp:139] Memory required for data: 336249200
I0803 10:30:44.870885 13998 layer_factory.hpp:77] Creating layer pool5
I0803 10:30:44.870905 13998 net.cpp:86] Creating Layer pool5
I0803 10:30:44.870913 13998 net.cpp:408] pool5 <- conv5
I0803 10:30:44.870921 13998 net.cpp:382] pool5 -> pool5
I0803 10:30:44.870997 13998 net.cpp:124] Setting up pool5
I0803 10:30:44.871009 13998 net.cpp:131] Top shape: 50 256 6 6 (460800)
I0803 10:30:44.871016 13998 net.cpp:139] Memory required for data: 338092400
I0803 10:30:44.871021 13998 layer_factory.hpp:77] Creating layer fc6
I0803 10:30:44.871034 13998 net.cpp:86] Creating Layer fc6
I0803 10:30:44.871040 13998 net.cpp:408] fc6 <- pool5
I0803 10:30:44.871050 13998 net.cpp:382] fc6 -> fc6
I0803 10:30:46.297701 13998 net.cpp:124] Setting up fc6
I0803 10:30:46.297770 13998 net.cpp:131] Top shape: 50 4096 (204800)
I0803 10:30:46.297776 13998 net.cpp:139] Memory required for data: 338911600
I0803 10:30:46.297794 13998 layer_factory.hpp:77] Creating layer relu6
I0803 10:30:46.297825 13998 net.cpp:86] Creating Layer relu6
I0803 10:30:46.297833 13998 net.cpp:408] relu6 <- fc6
I0803 10:30:46.297845 13998 net.cpp:369] relu6 -> fc6 (in-place)
I0803 10:30:46.298938 13998 net.cpp:124] Setting up relu6
I0803 10:30:46.298967 13998 net.cpp:131] Top shape: 50 4096 (204800)
I0803 10:30:46.298974 13998 net.cpp:139] Memory required for data: 339730800
I0803 10:30:46.298979 13998 layer_factory.hpp:77] Creating layer drop6
I0803 10:30:46.298998 13998 net.cpp:86] Creating Layer drop6
I0803 10:30:46.299005 13998 net.cpp:408] drop6 <- fc6
I0803 10:30:46.299018 13998 net.cpp:369] drop6 -> fc6 (in-place)
I0803 10:30:46.299065 13998 net.cpp:124] Setting up drop6
I0803 10:30:46.299077 13998 net.cpp:131] Top shape: 50 4096 (204800)
I0803 10:30:46.299082 13998 net.cpp:139] Memory required for data: 340550000
I0803 10:30:46.299088 13998 layer_factory.hpp:77] Creating layer fc7
I0803 10:30:46.299104 13998 net.cpp:86] Creating Layer fc7
I0803 10:30:46.299111 13998 net.cpp:408] fc7 <- fc6
I0803 10:30:46.299121 13998 net.cpp:382] fc7 -> fc7
I0803 10:30:46.972926 13998 net.cpp:124] Setting up fc7
I0803 10:30:46.972987 13998 net.cpp:131] Top shape: 50 4096 (204800)
I0803 10:30:46.972992 13998 net.cpp:139] Memory required for data: 341369200
I0803 10:30:46.973021 13998 layer_factory.hpp:77] Creating layer relu7
I0803 10:30:46.973047 13998 net.cpp:86] Creating Layer relu7
I0803 10:30:46.973054 13998 net.cpp:408] relu7 <- fc7
I0803 10:30:46.973063 13998 net.cpp:369] relu7 -> fc7 (in-place)
I0803 10:30:46.973887 13998 net.cpp:124] Setting up relu7
I0803 10:30:46.973903 13998 net.cpp:131] Top shape: 50 4096 (204800)
I0803 10:30:46.973908 13998 net.cpp:139] Memory required for data: 342188400
I0803 10:30:46.973914 13998 layer_factory.hpp:77] Creating layer drop7
I0803 10:30:46.973927 13998 net.cpp:86] Creating Layer drop7
I0803 10:30:46.973932 13998 net.cpp:408] drop7 <- fc7
I0803 10:30:46.973937 13998 net.cpp:369] drop7 -> fc7 (in-place)
I0803 10:30:46.973981 13998 net.cpp:124] Setting up drop7
I0803 10:30:46.973992 13998 net.cpp:131] Top shape: 50 4096 (204800)
I0803 10:30:46.973997 13998 net.cpp:139] Memory required for data: 343007600
I0803 10:30:46.974002 13998 layer_factory.hpp:77] Creating layer fc8
I0803 10:30:46.974017 13998 net.cpp:86] Creating Layer fc8
I0803 10:30:46.974022 13998 net.cpp:408] fc8 <- fc7
I0803 10:30:46.974030 13998 net.cpp:382] fc8 -> fc8
I0803 10:30:46.974647 13998 net.cpp:124] Setting up fc8
I0803 10:30:46.974663 13998 net.cpp:131] Top shape: 50 2 (100)
I0803 10:30:46.974666 13998 net.cpp:139] Memory required for data: 343008000
I0803 10:30:46.974675 13998 layer_factory.hpp:77] Creating layer fc8_fc8_0_split
I0803 10:30:46.974684 13998 net.cpp:86] Creating Layer fc8_fc8_0_split
I0803 10:30:46.974689 13998 net.cpp:408] fc8_fc8_0_split <- fc8
I0803 10:30:46.974704 13998 net.cpp:382] fc8_fc8_0_split -> fc8_fc8_0_split_0
I0803 10:30:46.974714 13998 net.cpp:382] fc8_fc8_0_split -> fc8_fc8_0_split_1
I0803 10:30:46.974764 13998 net.cpp:124] Setting up fc8_fc8_0_split
I0803 10:30:46.974776 13998 net.cpp:131] Top shape: 50 2 (100)
I0803 10:30:46.974782 13998 net.cpp:131] Top shape: 50 2 (100)
I0803 10:30:46.974786 13998 net.cpp:139] Memory required for data: 343008800
I0803 10:30:46.974792 13998 layer_factory.hpp:77] Creating layer accuracy
I0803 10:30:46.974808 13998 net.cpp:86] Creating Layer accuracy
I0803 10:30:46.974815 13998 net.cpp:408] accuracy <- fc8_fc8_0_split_0
I0803 10:30:46.974822 13998 net.cpp:408] accuracy <- label_data_1_split_0
I0803 10:30:46.974831 13998 net.cpp:382] accuracy -> accuracy
…
